S2_System_Identification/A1_PSO/result/param_history.npy (npy, 2848 bytes, 1 tensors)

array f8 [20, 17]
0	0xbfef12d950e3c04f	-0.9710508899570501
1	0xbd93008c5f24529f	-4.320586845407672e-12
2	0xbfc0d607e7efe00d	-0.13153170418786467
3	0x3ff66a2c2108971c	1.4009209909795066
4	0x3ffd22667c4506a7	1.8208985189707307
5	0x3fb61482720dffb0	0.08625045094049599
6	0x3ffdfb3b6f9db949	1.873835979462074
7	0xbff2c1a4f51703ba	-1.1722764562439196
8	0xbfd7d568d9900f21	-0.3724004864345592
9	0x3fb764d23e4c917f	0.09138216038679124
10	0xbffc78b23a7d6443	-1.7794668469198462
11	0x402507d8f876786b	10.51532722898647
12	0x4013d45a877d9271	4.957376591719922
13	0x4029005f6cc018fa	12.500728033494386
14	0x400460b7e520f2dc	2.547225751941694
15	0x4006d853295d3f72	2.855627368124197
16	0x40139fedd9f59838	4.90618076859942
17	0xbff95ada1db9c453	-1.5846806679876593
18	0xbfd843fb51af8c70	-0.37914927460787506
19	0xbf794105cb2751e1	-0.006165526038291764
20	0x400307aedb43b18a	2.3787514810594006
21	0x3ffcc09aace7e9f1	1.7970225099694483
22	0x3fa6b8bbbaaab634	0.044378153358917066
23	0x3fef5ba4d6f0c7e8	0.9799370000894188
24	0xbff2fbf9f05799c3	-1.1865176571242138
25	0xbfc53095286201a6	-0.16554512473886723
26	0xbff59cb7cce4e8a7	-1.3507612231901847
27	0x3fef385aeaab9971	0.975629289951753
28	0x402baae62841ddfc	13.833787210503026
29	0x4029aa9d0744f4ef	12.833229281585288
30	0x40205adbd45b636b	8.177458416133694
31	0x400bb2e11ec7f4f1	3.4623434452793096
32	0x40139861b2c6bb43	4.898810189609153
33	0x3fdab1361c0a9baa	0.4170661233751455
34	0xbffb31fa2e9d137a	-1.699701482853213
35	0xbfb45488942f465f	-0.07941487901487097
36	0xbfae85bf23ac1fb0	-0.059614155869041396
37	0x3feb1f5df307e146	0.8475789782233185
38	0x3ff4670ac99ce480	1.2751567721846016
39	0x3fb2667b72b27ba2	0.07187625456070504
40	0x3ffdb93060ec8e19	1.8577121530623855
41	0xc0001d6b00c13515	-2.014364248176785
42	0xc0016488dbe45a7a	-2.1740891627371726
43	0xbffaac68dbd6176f	-1.6670921885829235
44	0x3ff9bb68ca1c2672	1.6082542319221855
45	0x4033a876a05973e7	19.65806009467988
46	0x3ffcbd9c87acb838	1.7962918567459507
47	0x40237a9b2fe1c27f	9.73946523314339
48	0x3ffaa69e2b5af716	1.6656781858031926
49	0x4006b890497cb263	2.8401189557246638
50	0x4013cd023acf26bb	4.950203818219673
51	0xbfb42ed812bcc50f	-0.07883978326278317
52	0xbfee2411b3c3858a	-0.9419029723177783
53	0xbfec42fb09165718	-0.8831763436780617
54	0x3fefba61ab3c1dd6	0.9915016502790717
55	0x40070cf175071792	2.881319917944844
56	0x3fc1d3e25e885a08	0.13927869430399675
57	0x4003d41997989715	2.4785644381944487
58	0xbff35306424f57ea	-1.2077696409446568
59	0xc00b55abccded527	-3.4168315892699357
60	0x3fe4a170d78a18cf	0.6447071275477131
61	0x3fcacebc9ddaa0b2	0.20943410594668915
62	0x40027da64c24adce	2.3113523434346694
63	0x4020097b476b699f	8.018518668996704
64	0xbfdfffffffffb9ab	-0.4999999999990005
65	0xbfdffeab7e322874	-0.4999188167936446
66	0x3ff33b584adaa8b2	1.2019884990682326
67	0x4015e004e3fd651d	5.468768656102182
68	0xbfd70e23da412de1	-0.3602380401032104
69	0xbdf95a96d20a8bec	-3.689472772790809e-10
70	0xbff0fb94417054bd	-1.0614206844523288
71	0x3fb4d6ff26b048c8	0.08140558905168682
72	0x3ffc79fdcec9777d	1.7797830655685793
73	0x3fc6340cfa00a43f	0.17346346099046347
74	0x400537171725e581	2.6518995102348417
75	0xbea91db36dd68508	-7.485156989125972e-07
76	0xbfe60038f27c3db1	-0.6875271545449576
77	0xbfe0032cade44cac	-0.5003875156711692
78	0xbfa05434f176f539	-0.03189244697157751
79	0x401c253f2881a67b	7.036373742020824
80	0x4019b6e720f97b11	6.428616061427207
81	0x3ff4d2a03dc99b2c	1.3014223493170887
82	0x401affca615ab1b3	6.749795457039386
83	0x4023d1f1ac636564	9.910046946652706
84	0x3ff1f1fd8487ab93	1.1215796639396316
85	0xbff94b82892973b5	-1.5809350355041094
86	0xbfec17b2f434c1b2	-0.8778929490709315
87	0xbafc9c936c03679c	-1.4791863164734495e-24
88	0x400004f756ff3123	2.002424888289299
89	0x3ffc1a0d274b5c39	1.7563602003990708
90	0x3f94e9a7dd09b53c	0.02042257582291039
91	0x400182ff434d8986	2.1889634378468967
92	0xc0024c92c4623c5b	-2.2873893110732246
93	0xbfcc4b1b8cf870f3	-0.22104210265468502
94	0x400cfb1c24db65ce	3.622612274117933
95	0x3ff656e119e748ba	1.3962107669690753
96	0x401c1665f1612564	7.021873256258321
97	0x3fd57a473d8a467b	0.3355882740953359
98	0x403098e8e8c434f0	16.59730391302304
99	0xbfdac3c05693e451	-0.4181977124677064
100	0x3ff65642d496e4a6	1.3960598282122105
101	0x400dbf900e49adbd	3.7185364834055847
102	0xbfd8a15dbf40a6c5	-0.3848490112019188
103	0xbfd8b5fe1374b1d0	-0.3861079397200031
104	0xbf73337f8a35de64	-0.004687784388231007
105	0x400076c089ae41c2	2.057984424238584
106	0x3ffa2fa7d0f20e09	1.6366346513685832
107	0x3fad55c46ce0ed9a	0.05729497746548447
108	0x3fe3d790d69ef975	0.6200641815010345
109	0xbff595cbb9f81ef6	-1.3490712418005706
110	0xc00205a0b387fee5	-2.252747919643172
111	0x3ff2b45d82c89646	1.1690344914180897
112	0xbf9294f1b3feef77	-0.018146301852297122
113	0x402508ccf5df0d15	10.517188724019926
114	0x401a7907c6303446	6.618193718616629
115	0x4005d1ea8fbda138	2.727498171782056
116	0xbfdffd3083e64217	-0.49982846146397847
117	0x3fc6a5b0c7af3191	0.17693147421085745
118	0x40069ce5a6523611	2.826609897025954
119	0xbfcbdf0c6c636a27	-0.21774440090560285
120	0xbfbcf17e7aea58ea	-0.11305990696778037
121	0xbd1c2948064655d9	-2.5012219190771205e-14
122	0x4004bec0103e4372	2.5931397694588947
123	0x3f705a30340c3f7e	0.0039922602598067
124	0xbff1f64fe7a23477	-1.1226347969234476
125	0xbfe0853798bfbab4	-0.5162618621232782
126	0xc008312e1dc84882	-3.024013741182956
127	0xbff540e596b7dcf2	-1.3283439528875616
128	0x3ffa066ecfe900d6	1.6265705224505402
129	0x40140eb85356cdac	5.014375021145877
130	0x4004c7d858156d69	2.597580612329399
131	0x403a22fd3a0fb3ef	26.136676434358318
132	0x402b53c08ec047da	13.663578473064195
133	0x3ff34d46802d85ee	1.2063660628267558
134	0x401e7202b559dd7e	7.611338456735551
135	0xbfde81199cff1f3a	-0.47662964183517753
136	0xbff4aeb55e12668e	-1.2926534342463216
137	0xbfe660ca352cc24e	-0.6993151701518145
138	0xbecc67fac22e8474	-3.386279347109483e-06
139	0x3ff272700e3160fc	1.1529388956460584
140	0x4002091d176cde14	2.2544500188921663
141	0x3f9bfad38c9835b8	0.02732401414509919
142	0x3ff8d31b716414f3	1.551539843495729
143	0xbfefefe48c2d26d6	-0.9980337846584131
144	0xbff42ca756a02275	-1.2609017738160706
145	0xbfe2f47f718fa91a	-0.5923459260932618
146	0xbfd2a1d32ecda715	-0.2911270100654389
147	0x40184d614ed74a8a	6.075566512956934
148	0x4029009cf337f314	12.501197434024597
149	0x4019d385842ea134	6.4565640119038115
150	0x400a6474a0d643ed	3.2990505757702437
151	0x4013815f4e4a9937	4.876340125373011
152	0xbfdffffffffffffb	-0.4999999999999997
153	0xbfe48dc334678875	-0.6423049949191993
154	0xbfe016d6e62ceb3a	-0.5027880187620675
155	0xbf44699de2b6049c	-0.0006229420591098603
156	0x400a8cf5385a8b00	3.3188270952826997
157	0x3fe4e1e74d0cdf06	0.6525761132133716
158	0x3fa3a6d19a3b544e	0.03838210113250594
159	0x40004bcd668bb5f5	2.037012864245066
160	0xbff520c43b8271a4	-1.320499641856352
161	0xbffbfabbc1b30002	-1.7487142149329888
162	0xbfc815cecb5f3922	-0.18816552095672373
163	0xc001864c71c63038	-2.1905754936797415
164	0x4021000000000000	8.5
165	0x4003f5f7499b4bde	2.495100569774407
166	0x402187db3a248bb5	8.765344445191525
167	0x3ffb69e9e9119610	1.7133578399892748
168	0x3ff03a0b3a4f43ce	1.0141708638877733
169	0x401081b537fb20d0	4.126667856886527
170	0xbfc7f4a1dff3d917	-0.1871530860441417
171	0xbfe3ebb844430b3a	-0.6225243886222878
172	0xbf3d3fc5f758d2c5	-0.0004463060680309046
173	0x3fe81c063e879126	0.7534209462433281
174	0x400328c9f23589c5	2.3949164316738654
175	0x3fa266878ae56e02	0.03593848772535681
176	0x3ff1dc16556d05b1	1.1162322365711186
177	0xbfea317859a598fc	-0.8185388327517837
178	0xbff53680e57cc2bb	-1.325806518969485
179	0xbfa72e6d95bbfcb7	-0.04527609303294738
180	0xc00a79c6b3284f25	-3.3094610211063746
181	0x402e7d023fe62b56	15.244157788130604
182	0x4011fffffffffffb	4.499999999999996
183	0x403562024c83c73d	21.38284757821315
184	0x40210c69a6fe25e2	8.524243563198016
185	0x3feafc966c650a3d	0.8433334462245693
186	0x4019500bdfc58ac3	6.328170296127328
187	0xbfcfa68456bbac54	-0.2472691939832169
188	0xbfdbdd5274092f34	-0.4353834279215676
189	0xbf84f6127078066b	-0.010234970147396901
190	0x3ff3433dfa165a4d	1.2039165276561505
191	0x3fee7aeb5efe2399	0.9525048117949267
192	0x3fa7cbeaa372d4d2	0.04647763486119917
193	0x3ffe382b29b7e1cc	1.8887130384083433
194	0xbf93bb01277792ae	-0.01926805308711959
195	0xbff93be5e86f70da	-1.5771235541824837
196	0xbfbd297d3edb1041	-0.11391432556689642
197	0x3fd4e33abb490397	0.3263689831692828
198	0x4033a919221266e7	19.660539750569026
199	0x4026612bab841204	11.189786300536987
200	0x4020ffffada55178	8.499997545652818
201	0x40100675ad2a9442	4.006308274959396
202	0x3fffccb325ee3514	1.9874755365047507
203	0x401c014f335f6748	7.0012786890964165
204	0xbfdc03276fd7ae6f	-0.43769250795478504
205	0xbfe406a6c040d032	-0.6258119349427089
206	0xbf96eee88fe72f62	-0.022395738394876637
207	0x3ff2ec222bc2098e	1.1826497754378553
208	0x40085cbd897d0b75	3.0452833882604247
209	0x3fae885ad8f5ea37	0.05963405512280356
210	0x3fed11079adee922	0.908328821641849
211	0xc00addc923f27cd9	-3.3582938011528367
212	0xbffbc068f59b53cc	-1.7344750970853395
213	0xc006ef56d1b93a14	-2.866864813294578
214	0xc00d8c4b20fb24fa	-3.6935026718753052
215	0x402100571d7ddaf8	8.500664636243059
216	0x400cd9a6826ef9ff	3.606274622928367
217	0x4016000000000000	5.5
218	0x4020cd9e43f1c9ff	8.401598094239487
219	0x4015463f16fa5800	5.318600043325205
220	0x4020b41bb210ab19	8.35177380040618
221	0xbfd88c9abf4e444b	-0.38358181650352624
222	0xbfb7e3612664ac2a	-0.09331328570685629
223	0xbee22c0aba196556	-8.665103283056013e-06
224	0x4000813845ce06ea	2.063095612859674
225	0x3ffc563325d2038a	1.7710448720319811
226	0xbfc1ad295c15ca1e	-0.13809697147696992
227	0x3fbd2069cd5e2f98	0.11377583755364495
228	0xbfea900d1fc8dd7c	-0.8300843830865428
229	0xbfdf5e37c2aaad03	-0.4901255990068451
230	0x4003c50ce0a5b845	2.4712159681867285
231	0x3ff9738fa3952e47	1.5907131566954307
232	0x4028208ed0fa49cb	12.063589602043882
233	0x40121794d40c9203	4.523028672473177
234	0x40240d6f3efccecb	10.026239364967656
235	0x401208f7f86345d4	4.508758431491021
236	0x40117ba508c9beb6	4.37074674350122
237	0x4008f28e6d7c8a7a	3.1184357217437624
238	0xbfd09681aa82140c	-0.2591861882322639
239	0xbfd49f30a620eef0	-0.3222161886549051
240	0xbf874d349006d293	-0.011377726216644823
241	0x4001f4aec9d072a3	2.2444740072954388
242	0x3fd0a3c5ee6ffd15	0.2599959209910179
243	0x3faaabe0964d56b2	0.052092569682526416
244	0x40074dfdbbaabb21	2.9130816136815985
245	0xbfe9d40e097fd16a	-0.8071355996640197
246	0xbff35ea5ca09ec4a	-1.210607327665246
247	0xbffe3e07348f7d14	-1.890143590273344
248	0x400462a454493675	2.548164995655322
249	0x4024fffd8cd5d2fa	10.499981309033945
250	0x4015bdb227565ff5	5.435249914786245
251	0x3ff19c4153243299	1.1006482360564063
252	0x40126e6ec07e466b	4.607844360072344
253	0x3fdc710ea3dbc84e	0.44440046312150094
254	0x4018cb71dcc0103e	6.198676537726042
255	0xbfe36813523bbfc9	-0.6064545255776405
