S2_System_Identification/A3_FPA/result/param_history.npy (npy, 2848 bytes, 1 tensors)

array f8 [20, 17]
00000000: 889e 09bc da06 f6bf e22c e295 faaa e8bf
00000010: ac39 4503 bcf9 74bf d0c8 e224 9323 1f40
00000020: 7b0d 3a34 edc5 e13f b48a e4d9 d5a4 ab3f
00000030: c229 71be a254 0240 46ff 8429 528c ffbf
00000040: 7352 422a d600 f5bf 5233 9d27 2a75 1c40
00000050: 62a9 f81f a4db 7a40 fdfc 702d 6452 0140
00000060: 7efb 8988 b2a3 2c40 2044 e966 37c9 5f40
00000070: 591d 446b bc21 8640 8289 e825 f0f9 4b40
00000080: 88e1 e280 7b7e 5740 fe90 0c44 2eed dcbf
00000090: 9c91 fafd 8724 e5bf 127a 9c3c 6d17 7dbf
000000a0: 0d13 9c0a 5b1b 0c40 35f9 4409 3bff f23f
000000b0: ef5b 7c46 b2cf a93f 6f2f 9b12 e9a0 fa3f
000000c0: 8021 d18b 93be 3ec0 33fa 0fbf b8b7 e3bf
000000d0: 76ac 2d04 6e01 3dc0 92ee b166 e8e5 edc0
000000e0: fdb3 3290 86b4 1d40 1e88 3dab 827b 5040
000000f0: 1843 d010 a759 0040 f31b 18e7 cfd6 5040
00000100: 54ec f3a1 822d 1240 927b 7d20 97f7 9b40
00000110: b1e7 a9df 77bc ebbf 73d3 978c 9c48 dcbf
00000120: 345c a274 d741 41bf ad20 38ff 4bf7 1540
00000130: 3fac 87e0 99e6 a03f 3436 24ea 1255 a53f
00000140: fe5d c8eb 1ffd 1240 60b1 b2bb 1387 30c0
00000150: 938a 3aaf e05a 08c0 7c5a f11f 8385 6bc0
00000160: 7fca 6362 069b adc0 019f 29a6 4659 d33f
00000170: ad0a 2239 8711 1140 171c 37c2 d2b2 5540
00000180: 2124 cb12 6911 2e40 37fc 09d9 8552 4440
00000190: 513f 7e8b 63c4 1140 4863 acf6 c692 ddbf
000001a0: 37a7 326e 1e8a d9bf 1269 2023 6a90 90bf
000001b0: eb27 ea48 b3af fd3f a26e 62ed 866c f53f
000001c0: 6ace 31e1 5964 af3f d08a 1405 b889 f43f
000001d0: 82f2 417e 00b7 2fc0 4871 8c98 7dd4 29c0
000001e0: dcf1 a816 6dea 46c0 cb43 3916 7977 d9c0
000001f0: 1d6f 1f8c 5c7e f83f e824 9814 5184 1840
00000200: 21d1 a94e 4e9f 2840 e36e 0dc1 7c43 2240
00000210: 0ac1 763d e04a 0e40 cbc0 e58a 6d85 4240
00000220: ecb7 3100 b1e6 c9bf 86d8 ab6a eae9 e2bf
00000230: 7675 489b 56e8 42bf 32b3 dcb5 7a19 fa3f
00000240: 6e68 0624 43a1 fd3f ce4c 1ce3 5a02 a43f
00000250: 401f caa6 5534 f33f 4532 0b08 c76e 29c0
00000260: 2f03 93c8 2816 05c0 1733 7bd6 7f98 69c0
00000270: 182a 07bc 7f92 53c0 0d4b 5ee4 c09b f63f
00000280: 7b54 4688 9059 3d40 041a a71b d645 1040
00000290: 14e3 c651 4c7c 1140 89da 130b 7f5a 2d40
000002a0: e346 a3b2 eb77 a440 0b41 36a8 b6ad e1bf
000002b0: 6c9d 0143 d4ce e4bf 751a 57c5 fd9f 6bbf
000002c0: bf51 5af4 7aac 1640 682f b7bd 10f8 d73f
000002d0: 830c ab6f f0a1 a93f 1d2a ecb5 93de 0440
000002e0: 9eaa ac69 f4b4 2ec0 a504 703d 4025 f9bf
000002f0: 225e 9f73 3a43 42c0 5b9a 8d7f 9f77 6040
00000300: 7700 94a2 b795 0d40 1a97 28e0 3044 2440
00000310: 9989 5b27 7a40 5a40 8277 a4fe 05f7 3740
00000320: 8f26 0d34 d1f7 4740 bfda 7fef a5a0 3b40
00000330: 8628 c2db a637 fabf 5a06 7980 e730 e3bf
00000340: 3a7c b243 ff2f 26bf 3ed6 4e02 de10 2040
00000350: 3135 04f1 6554 b63f eb02 83f7 62d8 a93f
00000360: 12e3 3c40 0608 0e40 5d08 7d4c 498c 2ac0
00000370: c3fb af1e 3f4f f0bf 9c07 18d8 522d 32c0
00000380: 2123 c66d 8fb7 81c0 8be8 7161 92bd f93f
00000390: c0b6 7701 f39e 6240 04f4 abe8 48bb 3840
000003a0: 077b 3877 ad81 3c40 f12e 1937 d928 5440
000003b0: 49e4 0c15 e6de 9540 7c8d a6f6 da1c f8bf
000003c0: b18f 5a4f 79ec febf 6fce 4a3e 52af a2bf
000003d0: ee02 8496 d6c6 2a40 e19c 28c8 a421 0540
000003e0: 709f 79dd 1230 ab3f a94a c5fa a304 0040
000003f0: 6ff1 6206 aef7 22c0 93a7 16a9 000c 35c0
00000400: b75a 9250 f860 49c0 acca a412 bc19 e340
00000410: 545b 05e9 f333 3540 1086 78c7 f6f3 6440
00000420: 2cee 2068 135b 3340 1a5c 8500 ef14 5140
00000430: 6729 12a4 e4b3 8d40 64ad de32 9405 4540
00000440: 573e a601 b669 ecbf db80 f2d9 4616 e0bf
00000450: b794 2a7b a3ba d3be 4f16 dd6e 60f6 1640
00000460: 2e81 8569 d29e b53f a649 2cc1 40e1 a63f
00000470: 5668 9e65 3e64 0e40 4678 6b86 eee2 2dc0
00000480: 9d9a e2ab 2f4e 2cc0 e753 3368 2a60 32c0
00000490: f565 00cc 9b47 73c0 1493 bc22 6a74 d63f
000004a0: 2e86 a94a a5a8 5240 c129 91eb a851 d53f
000004b0: 51d9 0be9 1587 3340 6e75 406c 2ec2 6740
000004c0: c2fe 4392 3a75 0140 dd9a 6f6d cd98 f2bf
000004d0: b87e 3b2f 9254 e9bf a8b4 2608 7ca6 26bf
000004e0: a3c2 62da e11c 1a40 0d01 ff6c 6165 eb3f
000004f0: 7acb 098b f556 a73f 8927 654c 131f ff3f
00000500: cfea 3eff a940 10c0 e899 7c50 22ed 0bc0
00000510: e1c5 2ea4 2630 46c0 1274 5aca fd57 24c0
00000520: c1b5 00db 07e9 2140 78e1 acd7 c6d3 5a40
00000530: ec9c 0141 7636 0340 44f6 b7f0 2521 3740
00000540: e000 4978 41ce 2240 e99e 6dd7 4cdb 1640
00000550: 5405 4c7d 45e7 01c0 2c39 ebd3 731d f3bf
00000560: 2859 0bd8 1b24 7cbf 4207 21f2 5159 2c40
00000570: f782 5fea 6dfd c23f 7369 9ce3 0b9b a53f
00000580: 6836 e8e8 8363 1140 7ef7 7cc5 d538 10c0
00000590: a218 c3c2 b9b0 88c0 0b64 1628 c4a0 72c0
000005a0: def4 fd07 863f dfc0 6a34 1ed7 d727 3340
000005b0: 604e 40a3 e1e2 4540 b765 3f6a fe46 6940
000005c0: ed2e e663 8f9f 2040 e0c7 9eb0 48b9 4240
000005d0: 454d 1ff1 2a51 4440 e8f3 0ceb 76d4 f9bf
000005e0: 6ad4 5a92 c620 f3bf 6cb6 645c e404 62bf
000005f0: 0b22 1c24 9743 2840 b1a1 6b13 669f e33f
00000600: 3a4a 6463 cf78 ac3f 4249 2f4c a46f 0340
00000610: f086 5dd6 eeb4 21c0 2eba f406 fc47 39c0
00000620: ff0a 90d1 1260 a2c0 16c4 381c 0077 7b40
00000630: f912 ecdb d01c 3140 a2fb 2790 16d3 6540
00000640: e2c2 5630 f7b0 5040 42ea 4dab 061f 1640
00000650: 0e3e c8d4 b843 2e40 f617 e3c5 c27b 4c40
00000660: 51c5 ffe4 1585 ffbf 2229 50ca 11a0 e4bf
00000670: 806c ec49 666c 4ebf 4a2b 17ac a1a2 2140
00000680: cddb 910a 2dc7 c63f aa3a fce4 e9ff ac3f
00000690: 15e5 6a1e 91a3 0740 5f06 8a3e 59c8 11c0
000006a0: 5bc3 7228 5e38 46c0 a067 217c 7ac0 79c0
000006b0: 6b8a 2da1 8270 70c0 0126 b976 272c 1740
000006c0: 9f60 2aeb 1416 6540 24da e449 206a 3840
000006d0: 221f e8ca 2b14 8b40 d034 07ac f702 5940
000006e0: 735e 8bda 5c4b 6e40 c325 38cc 7ff1 23c0
000006f0: 0199 51a1 0717 bcbf 750b e4d5 8573 1bbf
00000700: a620 449f 6965 2b40 4a7f 8741 1584 3440
00000710: 4b73 83e0 8c82 ddbf eb58 de77 2a38 0040
00000720: a03f 22ee cc9b e0bf 9815 bb03 3edb 45c0
00000730: 50f9 a81f 6b63 6dc0 f456 d302 dc92 acc0
00000740: 408e 7645 53e2 2940 60a9 969d 550e 5d40
00000750: 4b50 2450 21a3 3740 5c55 76aa 795d 4240
00000760: a4b8 ca24 60b9 6d40 1d42 9ae4 1451 0b40
00000770: 26ac fd54 4c7b d1bf d410 bd88 363c e0bf
00000780: 6a21 387b 6fe0 38bf 1cdb 4f3d 2f59 0940
00000790: 5c48 f87b a101 e13f 0991 88cc fb8f a43f
000007a0: 364a 846f 7a86 0140 a8c0 db7a c696 32c0
000007b0: e84c 0efc d9c5 42c0 52ed 2e3a 852a 3bc0
000007c0: e228 2276 599a 91c0 cedd 16d3 dc34 ff3f
000007d0: b6a6 7029 429a 3a40 0d50 2da6 3e06 0840
000007e0: 8bd5 5b1e 2400 2340 ebde 3734 61c3 1440
000007f0: 3ec1 9c5d a5ea 7240 c18b ccb2 0cd6 2ec0
-1.3766734452455314 -0.7708714415943201 -0.005120977806952014 7.784740997640441 0.5554109592489306 0.0539919689638472 2.291326034382309 -1.971758043466211
-1.3127042437310166 7.1144186200807145 429.72756955274065 2.1652301359277986 14.319721476405672 127.14400646953482 708.2170014687973 55.95264123777726
93.97628805309625 -0.45197636266153995 -0.660709377338708 -0.007102419572929468 3.5133572415237553 1.1873121606909767 0.050412722686978266 1.6642847754291912
-30.744438875729884 -0.6161769611060833 -29.005584965849685 -61231.262536016424 7.426294568152113 65.9298503971954 2.0437756837421936 67.35643937448894
4.54444363642968 1789.8975848776504 -0.8667563789779164 -0.44193185548583996 -0.0005266477612789811 5.491500842858085 0.03300934663624177 0.041664687234611725
4.7471920815510185 -16.527644854665937 -3.0443738641491307 -220.17225644244525 -3789.5124694046676 0.3023239729577512 4.267117397978535 86.79411368734178
15.034004771516324 40.644709710956185 4.441785983639265 -0.4620835694236587 -0.39905510674963146 -0.01617589797397396 1.8553955887059554 1.3389958641845756
0.0613124930759142 1.2836227606245991 -15.857425637769897 -12.915020720619069 -45.83145411729103 -26077.891981426434 1.5308499787851766 6.1292155473576955
12.311144312123874 9.13181117333392 3.7865605165353644 37.042405473884706 -0.2023526431034378 -0.5910541613982481 -0.0005770132907546982 1.631220541380753
1.8518706710078976 0.039080467437224806 1.2002769961563473 -12.716362239233726 -2.635819975840057 -204.76560520231644 -78.28904629420902 1.4130257530820842
29.34986163823167 4.068199569772791 4.371384885562993 14.676750513242284 2619.9603472732574 -0.5524552617444284 -0.6502476986615142 -0.0033721882307163283
5.668437784207014 0.37451571013365603 0.05006362307678904 2.608680173177403 -15.353427221610499 -1.5715944671540367 -36.52522130281092 131.73822000176264
3.698104162351281 10.13318539138304 105.00745567263802 23.964935221818003 47.936071878834916 27.627531975473854 -1.6385868629754738 -0.5997197636826954
-0.00016927710553191357 8.032943794368403 0.08722531446638439 0.05047902366050557 3.753918172701 -13.273996725333001 -1.0193473051765387 -18.177045350901253
-566.9450335959883 1.6087821775859392 148.9671637857591 24.73158125112606 28.50655312661095 80.63825776538194 1399.7246896757445 -1.5070447573460504
-1.932732877708059 -0.0364938450851725 13.3883559261462 2.641427577723889 0.05310114816239675 2.00226589121424 -9.483749579980865 -21.04688507845965
-50.75757796426972 39117.877275844425 21.202940524871636 167.62387441196233 19.35576487354244 68.32708752654472 950.4866410654912 42.04358516571918
-0.8879041702475189 -0.5027193314345156 -4.703773742652568e-06 5.740602237934197 0.08445468021591715 0.044687293606460884 3.7989471377341415 -14.943226051920771
-14.15270745412027 -18.375647079974353 -308.4755363479192 0.3508553828453824 74.63508860163776 0.3331091213664444 19.52767807521133 190.0681668528518
2.1822406222343895 -1.1623052859155714 -0.7915736124523027 -0.00017280830441049788 6.528205311086512 0.8561255577879209 0.04558532068485639 1.9450867637810652
-4.063148487296259 -3.4907881057763355 -44.376179240072595 -10.17185814241569 8.955138057552974 107.30901138193974 2.4015927389733545 23.129485173142044
9.402843245421934 5.714160314622611 -2.2379255093407355 -1.1946905401305896 -0.006870373502087447 14.174453321964055 0.14835905021666182 0.04219853547529597
4.347182883427742 -4.0555029733203565 -790.0907035104649 -298.04788979288486 -31998.094237794045 19.155637211679654 43.77251091613721 202.2185565222005
8.311640855644749 37.447530820398015 40.634122982296084 -1.6143712217010435 -1.1955018727287787 -0.0021995983289773615 12.132012489732935 0.6132078532510176
0.0556092079952077 2.429512591546115 -8.853384684483416 -25.281189379451625 -2352.0367550862716 439.43752691435054 17.112561936507493 174.5965042858998
66.76508720848827 5.530298878317412 15.13226952499738 56.96688150013499 -1.969991583373787 -0.6445397330692553 -0.0009284495789389086 8.81763971121622
0.1779533673868329 0.056639966203979 2.9548666359302254 -4.4456529399627405 -44.44037347415607 -412.02990353630776 -263.03189199246725 5.793119292307439
168.69005354191628 24.414555185672853 866.5213831076146 100.04636669830074 242.35508467884537 -9.971678144315666 -0.1097264069408972 -0.00010471824996120627
13.69807145792613 20.51594934042013 -0.46109315800804457 2.0274247517328283 -0.5190186167765098 -43.71283003458956 -235.10682662012778 -3657.4297090572018
12.942041559908034 116.22397556031274 23.637227066865574 36.73027544763565 237.79298629373545 3.4145906314445384 -0.273150523184713 -0.5073502226519175
-0.0003795883341983971 3.168547133445271 0.5314490720068181 0.04016100761171699 2.190663214897792 -18.58896606316617 -37.54571486185324 -27.16609538694076
-1126.5873647057965 1.9504059072186126 26.602572050097216 3.0030491812303866 9.500275562963699 5.190800491247255 302.66537247879376 -15.418065631360038
