O1_Steady_State_Response/A4_MFPA/result/param_history.npy (npy, 1328 bytes, 1 tensors)

array f8 [50, 3]
00000000: 817e 2c8a fb33 eb3f 3ccd 66da 748e c2bf
00000010: d472 498e d5a2 b83f 6910 ee89 fb33 eb3f
00000020: 672e bdda 748e c2bf 8c87 a88d d5a2 b83f
00000030: 458b 5a8a fb33 eb3f 58b1 8cda 748e c2bf
00000040: a4e5 c68b d5a2 b83f 5079 1b8a fb33 eb3f
00000050: e235 2eda 748e c2bf 54ff 8a8e d5a2 b83f
00000060: b0f2 6e8a fb33 eb3f a057 0fda 748e c2bf
00000070: d45d 9c8d d5a2 b83f 5a2b 308a fb33 eb3f
00000080: 80e6 b8da 748e c2bf cc8e e28b d5a2 b83f
00000090: ca76 2c8a fb33 eb3f 3167 a1da 748e c2bf
000000a0: ec0e d48c d5a2 b83f 77fc 388a fb33 eb3f
000000b0: 5cd1 8cda 748e c2bf fc4e e28c d5a2 b83f
000000c0: 0385 258a fb33 eb3f db8c 58da 748e c2bf
000000d0: d499 a78d d5a2 b83f 1502 fa89 fb33 eb3f
000000e0: a7f4 afda 748e c2bf 0472 878d d5a2 b83f
000000f0: 0708 3b8a fb33 eb3f c0c2 d1d9 748e c2bf
00000100: d49b df8e d5a2 b83f ab5f 248a fb33 eb3f
00000110: d1b7 a0da 748e c2bf 0c76 5c8c d5a2 b83f
00000120: da94 558a fb33 eb3f a6f0 8fda 748e c2bf
00000130: 2412 528c d5a2 b83f 9051 558a fb33 eb3f
00000140: fcc8 18da 748e c2bf ac26 568d d5a2 b83f
00000150: 3e8d 278a fb33 eb3f 400c d2da 748e c2bf
00000160: 4c24 238c d5a2 b83f ea12 398a fb33 eb3f
00000170: e7b3 2fda 748e c2bf 5c14 328e d5a2 b83f
00000180: 60e9 528a fb33 eb3f 4347 69da 748e c2bf
00000190: 7422 ad8b d5a2 b83f a430 518a fb33 eb3f
000001a0: 64a4 afda 748e c2bf ccc2 9a8c d5a2 b83f
000001b0: 39af 2b8a fb33 eb3f 5b6b 44da 748e c2bf
000001c0: f499 058e d5a2 b83f 580a 638a fb33 eb3f
000001d0: 9db6 18da 748e c2bf 549a ec8c d5a2 b83f
000001e0: be0d 068a fb33 eb3f eff6 ceda 748e c2bf
000001f0: 6491 ba8c d5a2 b83f 7ff5 358a fb33 eb3f
00000200: bcf3 2ada 748e c2bf e4c1 558e d5a2 b83f
00000210: 46e3 f489 fb33 eb3f 6b68 6eda 748e c2bf
00000220: 3427 db8e d5a2 b83f 1676 3c8a fb33 eb3f
00000230: f91b bbda 748e c2bf 1c9b fa8b d5a2 b83f
00000240: 6d07 5c8a fb33 eb3f 6c5e efd9 748e c2bf
00000250: 5ca9 e28d d5a2 b83f 2e35 328a fb33 eb3f
00000260: 0629 a6da 748e c2bf e491 d98c d5a2 b83f
00000270: 7e27 038a fb33 eb3f 9721 82da 748e c2bf
00000280: 1cd9 b18d d5a2 b83f ea1d 4f8a fb33 eb3f
00000290: 267f 1fda 748e c2bf 6416 6d8d d5a2 b83f
000002a0: f892 1a8a fb33 eb3f 3a25 56da 748e c2bf
000002b0: dc8a 208e d5a2 b83f adb9 478a fb33 eb3f
000002c0: 4757 1cda 748e c2bf e4d9 f68d d5a2 b83f
000002d0: 2240 518a fb33 eb3f 4a5d 09da 748e c2bf
000002e0: cc93 ad8e d5a2 b83f 9100 3f8a fb33 eb3f
000002f0: 5a73 3fda 748e c2bf 2cc2 3d8e d5a2 b83f
00000300: 5e57 498a fb33 eb3f e74a 9fda 748e c2bf
00000310: 541d a08c d5a2 b83f 4bfd 008a fb33 eb3f
00000320: b8a4 a9da 748e c2bf 6cef 028e d5a2 b83f
00000330: 5304 2b8a fb33 eb3f 0e83 02da 748e c2bf
00000340: 1443 b08e d5a2 b83f e4ce 398a fb33 eb3f
00000350: a7d8 b8da 748e c2bf ccc5 c08c d5a2 b83f
00000360: f887 568a fb33 eb3f 5b4c 80da 748e c2bf
00000370: cc8e 8d8c d5a2 b83f c05f 2f8a fb33 eb3f
00000380: 60a1 6bda 748e c2bf b4c6 5c8d d5a2 b83f
00000390: 145f 418a fb33 eb3f e9b8 e3da 748e c2bf
000003a0: 1422 b18b d5a2 b83f 15c2 498a fb33 eb3f
000003b0: 6277 19da 748e c2bf d43a 6f8d d5a2 b83f
000003c0: 9c00 0e8a fb33 eb3f f7cc cdda 748e c2bf
000003d0: 7405 168d d5a2 b83f ab29 3c8a fb33 eb3f
000003e0: b3f9 98da 748e c2bf 1459 f28c d5a2 b83f
000003f0: 01dd 108a fb33 eb3f e069 89da 748e c2bf
00000400: ecb5 028e d5a2 b83f d42c 198a fb33 eb3f
00000410: 66a7 56da 748e c2bf ecee 118e d5a2 b83f
00000420: 3ed3 2b8a fb33 eb3f 8caf 0edb 748e c2bf
00000430: d426 7e8b d5a2 b83f 3cc8 168a fb33 eb3f
00000440: e561 e1da 748e c2bf 6cde 768c d5a2 b83f
00000450: 2f27 188a fb33 eb3f ed9a 60da 748e c2bf
00000460: ec5a 118d d5a2 b83f d9bb f789 fb33 eb3f
00000470: 2398 5fda 748e c2bf 3cfd 738e d5a2 b83f
00000480: 6089 118a fb33 eb3f cdac 4bda 748e c2bf
00000490: 4466 d58e d5a2 b83f 4e92 318a fb33 eb3f
000004a0: fc77 66da 748e c2bf 1c32 ba8d d5a2 b83f
0.8500955294329772 -0.14497242607249372 0.09623465274621462 0.8500955289787387 -0.14497242622961723 0.09623465259985958 0.850095529768034 -0.14497242614141714
0.09623465216181742 0.8500955293091383 -0.1449724259695549 0.09623465280583093 0.8500955299164925 -0.14497242591340598 0.09623465258879743 0.8500955294597177
-0.14497242622183037 0.09623465218697475 0.8500955294327579 -0.14497242617908904 0.09623465240661816 0.8500955295238687 -0.14497242614164463 0.09623465241957868
0.8500955293822304 -0.14497242604657043 0.09623465259901504 0.850095529065643 -0.14497242620556003 0.09623465256976976 0.8500955295387492 -0.1449724258013898
0.09623465288278449 0.8500955293738931 -0.14497242617784292 0.09623465229784517 0.8500955297319266 -0.14497242614732392 0.09623465228839528 0.8500955297300141
-0.14497242593058235 0.09623465252493685 0.8500955293970163 -0.14497242626757334 0.09623465224571354 0.8500955295245067 -0.1449724259722693 0.09623465272496062
0.850095529712501 -0.14497242607699876 0.09623465213838661 0.8500955296999746 -0.14497242620498973 0.09623465235450651 0.8500955294270859 -0.1449724260099526
0.09623465268450798 0.8500955298298534 -0.14497242593045181 0.0962346524289413 0.8500955291532859 -0.1449724262619649 0.09623465238343482 0.8500955295018428
-0.14497242596362792 0.09623465275740944 0.8500955290283876 -0.1449724260863293 0.09623465287873217 0.8500955295491532 -0.1449724262258483 0.09623465220884636
0.8500955297788387 -0.1449724258552466 0.0962346526527304 0.8500955294745489 -0.14497242618774225 0.09623465241163093 0.8500955291321899 -0.14497242612220582
0.0962346526083348 0.8500955296848904 -0.14497242594279064 0.09623465254579738 0.8500955293025916 -0.14497242604219612 0.09623465270901072 0.8500955296311098
-0.14497242593705037 0.09623465267109271 0.8500955297004149 -0.1449724259025323 0.09623465283728122 0.850095529567641 -0.14497242600091448 0.09623465273558257
0.8500955296428676 -0.14497242617525005 0.09623465235937562 0.8500955291164386 -0.14497242619407813 0.09623465268208314 0.8500955294222287 -0.1449724258900677
0.09623465283972293 0.8500955295298493 -0.14497242622173198 0.09623465238907797 0.8500955297388364 -0.1449724261188717 0.09623465234249834 0.850095529453931
-0.14497242608127703 0.09623465253096236 0.8500955295848791 -0.14497242629972298 0.09623465214202326 0.8500955296459006 -0.14497242593182152 0.09623465254774582
0.8500955292111203 -0.14497242625984771 0.09623465246661117 0.8500955295469813 -0.14497242616375913 0.09623465243416646 0.8500955292319362 -0.14497242613545236
0.09623465268187886 0.8500955292924126 -0.14497242604312105 0.09623465269572379 0.8500955294281096 -0.144972426377873 0.0962346520956559 0.8500955292750016
-0.14497242629546672 0.09623465232186285 0.8500955292849762 -0.14497242606122232 0.09623465246236734 0.8500955290490949 -0.1449724260593835 0.09623465278490512
0.8500955292368353 -0.14497242602315055 0.09623465287349925 0.8500955294699197 -0.14497242607188798 0.09623465261592695
