O1_Steady_State_Response/A3_FPA/result/param_history.npy (npy, 1328 bytes, 1 tensors)

array f8 [50, 3]
0.8500955296383257 -0.1449724260735183 0.09623465244596678 0.8500955299072096 -0.14497242570775803 0.09623465293884109 0.85009552937752 -0.1449724262029443
0.09623465237049561 0.8500955295548801 -0.14497242607430996 0.09623465252060176 0.8500955288593827 -0.14497242629555798 0.09623465261760072 0.850095529528386
-0.14497242629419765 0.09623465215160959 0.8500955293298784 -0.14497242624787401 0.0962346523121666 0.8500955295807756 -0.14497242599863508 0.09623465259490366
0.8500955290278152 -0.1449724260874825 0.0962346528363362 0.8500955296186458 -0.14497242624183104 0.09623465229400824 0.8500955292870118 -0.1449724261985855
0.09623465259671854 0.8500955291494421 -0.14497242643460634 0.09623465231993306 0.8500955296387894 -0.14497242617706435 0.09623465230144285 0.8500955297482848
-0.14497242626073303 0.09623465226101852 0.8500955296470679 -0.14497242618267772 0.09623465228739819 0.8500955295922346 -0.14497242608221084 0.09623465264969694
0.8500955297072285 -0.144972426153085 0.09623465231418277 0.8500955294242272 -0.14497242630858412 0.09623465205319265 0.850095529099112 -0.14497242631479718
0.09623465252942726 0.850095529388797 -0.14497242607421698 0.09623465261685898 0.8500955298136503 -0.1449724259193388 0.0962346525147057 0.8500955291847222
-0.14497242624327283 0.09623465253937621 0.8500955292844491 -0.14497242644939745 0.09623465225050581 0.8500955292215979 -0.14497242646764114 0.09623465215407762
0.8500955299682954 -0.1449724256991917 0.09623465269386072 0.8500955299100055 -0.1449724260574756 0.0962346524953131 0.8500955291712015 -0.1449724261652008
0.0962346526236913 0.850095529092083 -0.14497242647990133 0.09623465235144707 0.850095529132188 -0.14497242629495138 0.09623465237022605 0.8500955294025513
-0.14497242605562471 0.09623465254606162 0.8500955294258488 -0.14497242624726703 0.09623465240925971 0.8500955295517126 -0.14497242619240663 0.09623465249071922
0.8500955295124046 -0.1449724262825246 0.0962346522839777 0.8500955297064421 -0.14497242606446728 0.09623465259276193 0.8500955298010503 -0.1449724260412322
0.09623465235743961 0.8500955298446183 -0.14497242604566762 0.09623465218338162 0.85009552937008 -0.14497242625063608 0.09623465229315581 0.8500955295728584
-0.1449724260556772 0.09623465248275725 0.8500955294412237 -0.1449724260431426 0.09623465255260416 0.8500955293227437 -0.14497242625965903 0.09623465237790513
0.8500955296097974 -0.14497242590234094 0.09623465284504967 0.850095529435779 -0.1449724261454852 0.09623465253138025 0.8500955295408663 -0.1449724258988131
0.09623465276278403 0.8500955294083286 -0.14497242584077155 0.09623465285008476 0.8500955290192189 -0.14497242621041048 0.096234652665727 0.8500955297149115
-0.14497242597097737 0.09623465245416857 0.8500955299118821 -0.1449724258826566 0.09623465258671687 0.8500955292134943 -0.14497242629504659 0.09623465248324464
0.8500955298841107 -0.14497242585855896 0.09623465262797032 0.8500955296872365 -0.14497242586665357 0.09623465268915782
00000000: 90b7 488a fb33 eb3f 6e5d 67da 748e c2bf
00000010: 9352 ff8c d5a2 b83f 13ac 6d8a fb33 eb3f
00000020: 4049 9ed9 748e c2bf 5c3e 1d8f d5a2 b83f
00000030: 47df 248a fb33 eb3f 8584 aeda 748e c2bf
00000040: 5457 ac8c d5a2 b83f 953f 3d8a fb33 eb3f
00000050: d9cc 67da 748e c2bf 7462 518d d5a2 b83f
00000060: f1a8 dd89 fb33 eb3f bd6e e1da 748e c2bf
00000070: 3c09 bc8d d5a2 b83f 679b 398a fb33 eb3f
00000080: 4aaf e0da 748e c2bf 64ac bb8b d5a2 b83f
00000090: 0a53 1e8a fb33 eb3f d137 c7da 748e c2bf
000000a0: 2c35 6c8c d5a2 b83f b3ce 408a fb33 eb3f
000000b0: 8e32 3eda 748e c2bf 9414 a38d d5a2 b83f
000000c0: 22cf f489 fb33 eb3f b80a 6fda 748e c2bf
000000d0: cc89 ac8e d5a2 b83f 2303 468a fb33 eb3f
000000e0: 58e5 c3da 748e c2bf 0c3e 588c d5a2 b83f
000000f0: ce6e 188a fb33 eb3f 131f acda 748e c2bf
00000100: 6c13 a58d d5a2 b83f 8086 058a fb33 eb3f
00000110: 0ee0 2ddb 748e c2bf 3cbf 748c d5a2 b83f
00000120: e1c7 488a fb33 eb3f 3e4a a0da 748e c2bf
00000130: b46a 608c d5a2 b83f 68d4 578a fb33 eb3f
00000140: 9049 ceda 748e c2bf 44f8 338c d5a2 b83f
00000150: 27eb 498a fb33 eb3f 4160 a3da 748e c2bf
00000160: 7cf9 508c d5a2 b83f e061 428a fb33 eb3f
00000170: cc24 6cda 748e c2bf 8453 df8d d5a2 b83f
00000180: dd2f 528a fb33 eb3f 731b 93da 748e c2bf
00000190: ac6c 6e8c d5a2 b83f a44a 2b8a fb33 eb3f
000001a0: 0198 e8da 748e c2bf 7c76 4f8b d5a2 b83f
000001b0: ab9b fe89 fb33 eb3f 6a02 ecda 748e c2bf
000001c0: 9c16 5b8d d5a2 b83f 0d6c 268a fb33 eb3f
000001d0: c3bf 67da 748e c2bf 7438 bb8d d5a2 b83f
000001e0: 40d0 608a fb33 eb3f 989a 12da 748e c2bf
000001f0: dce6 4a8d d5a2 b83f cf5f 0a8a fb33 eb3f
00000200: 42b0 c4da 748e c2bf fe06 668d d5a2 b83f
00000210: a314 188a fb33 eb3f b801 36db 748e c2bf
00000220: 3469 288c d5a2 b83f 4271 0f8a fb33 eb3f
00000230: 4a09 40db 748e c2bf 1463 be8b d5a2 b83f
00000240: 5711 768a fb33 eb3f a593 99d9 748e c2bf
00000250: 84e2 0f8e d5a2 b83f 720e 6e8a fb33 eb3f
00000260: 9f8b 5eda 748e c2bf 5494 358d d5a2 b83f
00000270: 1784 088a fb33 eb3f 99c4 99da 748e c2bf
00000280: 94bb c28d d5a2 b83f 5ba4 fd89 fb33 eb3f
00000290: c2c6 46db 748e c2bf a465 978c d5a2 b83f
000002a0: 6d27 038a fb33 eb3f 5e19 e1da 748e c2bf
000002b0: 740b ac8c d5a2 b83f fd4f 288a fb33 eb3f
000002c0: 2287 5dda 748e c2bf c460 6d8d d5a2 b83f
000002d0: b283 2b8a fb33 eb3f 64e2 c6da 748e c2bf
000002e0: 74f6 d68c d5a2 b83f 23d0 3c8a fb33 eb3f
000002f0: 7ab9 a8da 748e c2bf 4487 308d d5a2 b83f
00000300: 1c69 378a fb33 eb3f 7444 dada 748e c2bf
00000310: b436 4d8c d5a2 b83f 3214 528a fb33 eb3f
00000320: 9d63 62da 748e c2bf bcb9 a08d d5a2 b83f
00000330: ed14 5f8a fb33 eb3f 919d 55da 748e c2bf
00000340: 64fc 9d8c d5a2 b83f d711 658a fb33 eb3f
00000350: cc0d 58da 748e c2bf 6c9b de8b d5a2 b83f
00000360: 82d9 238a fb33 eb3f 8bbc c8da 748e c2bf
00000370: 1c4e 578c d5a2 b83f 23b8 3f8a fb33 eb3f
00000380: 858e 5dda 748e c2bf 2cc6 278d d5a2 b83f
00000390: a7a0 2d8a fb33 eb3f 6eaa 56da 748e c2bf
000003a0: 5492 748d d5a2 b83f 0258 1d8a fb33 eb3f
000003b0: 69b2 cdda 748e c2bf ec7c b48c d5a2 b83f
000003c0: d0cb 448a fb33 eb3f 5c42 09da 748e c2bf
000003d0: 6c1e b68e d5a2 b83f 16e1 2c8a fb33 eb3f
000003e0: dfed 8eda 748e c2bf 543c 5d8d d5a2 b83f
000003f0: 8452 3b8a fb33 eb3f dc51 07da 748e c2bf
00000400: b4aa 5b8e d5a2 b83f 421b 298a fb33 eb3f
00000410: 3d69 e7d9 748e c2bf aca7 bb8e d5a2 b83f
00000420: aea0 f389 fb33 eb3f 4b9f b2da 748e c2bf
00000430: 94f3 f08d d5a2 b83f 303e 538a fb33 eb3f
00000440: 14fe 2eda 748e c2bf 2c57 088d d5a2 b83f
00000450: 7950 6e8a fb33 eb3f 0970 fed9 748e c2bf
00000460: 3414 9a8d d5a2 b83f 2354 0e8a fb33 eb3f
00000470: c426 e1da 748e c2bf 5c4f 288d d5a2 b83f
00000480: 5b7f 6a8a fb33 eb3f 9830 f1d9 748e c2bf
00000490: 0470 c78d d5a2 b83f 7570 4f8a fb33 eb3f
000004a0: cfa3 f5d9 748e c2bf c4b6 0a8e d5a2 b83f
