S1_Steady_State_Response/A2_APSO/result/param_history.npy (npy, 1328 bytes, 1 tensors)

array f8 [50, 3]
000000 87 72 5c 99 2d 46 e8 3f c7 ac 5d c5 68 47 b6 bf
       0.7585666652044701 -0.08702711885932778
000010 a4 f5 95 8c 4f ae ce 3f 0a 1c e9 46 a4 c7 e2 3f
       0.23969454159297954 0.5868703255627008
000020 1c 31 d9 4f ab fe c0 bf 9c e9 0f 2a b7 79 d4 3f
       -0.13277188681457452 0.3199289236796632
000030 3e ce 95 d3 48 ac e2 3f 3b f6 94 92 aa 0f f5 bf
       0.5835308201334966 -1.3163247800688527
000040 54 fe 1a 11 8a 14 bc 3f 74 d8 e3 47 08 69 e7 3f
       0.10968840520490036 0.7315713314153656
000050 b8 af a7 98 eb 25 c3 bf 5f 2f f8 40 58 78 c6 3f
       -0.1495947356592049 0.17554763004624882
000060 62 61 4f ea 8e 91 e9 3f 3c 39 4a b6 38 e6 c2 bf
       0.7990183426254982 -0.14765080357433102
000070 ad 3f da d9 02 61 c2 3f 80 af 88 91 04 23 eb 3f
       0.14358554494219558 0.8480246393641977
000080 6e 99 dc 95 4e ae c2 bf 73 10 1e 49 78 6e b9 3f
       -0.14594442670313462 0.09934188637822831
000090 1d 38 36 66 ee 50 e9 3f 15 a1 09 49 ec 62 b0 bf
       0.7911293026279541 -0.06400944502968671
0000a0 10 51 6a 7c 3b 12 d2 3f c9 c0 3e 40 c1 c0 ea 3f
       0.28236281537944397 0.8360296492374114
0000b0 20 9f a0 72 bf c8 c3 bf a7 c2 3e b6 dc a8 ba 3f
       -0.1545638379768599 0.10413913201660795
0000c0 8b 00 ae 30 ea 20 e5 3f 78 48 10 01 c3 68 c2 bf
       0.6602679205680188 -0.14382207443174244
0000d0 fb 0f 15 43 05 2d cd 3f b6 5d 1f e9 07 df dc 3f
       0.22793641829969133 0.45111272588607265
0000e0 d3 6c 20 4b 90 45 e1 bf 2e 10 a5 98 53 ce d2 3f
       -0.5397416560475911 0.2938431730910932
0000f0 c4 bc 4e 16 df e3 ed 3f 91 d8 af 6b 97 6c b6 bf
       0.9340663371748623 -0.08759447459292093
000100 22 d5 37 ce 3b 18 c3 3f 4c f5 ec df 55 46 ea 3f
       0.1491770512508675 0.8210858701274133
000110 1f 02 25 33 ce d7 b2 bf 9d ad 56 9f 0f 08 d0 3f
       -0.0736054301132829 0.25049200592430926
000120 a0 76 01 30 a8 fe f4 3f 94 74 f7 d1 7e 96 a4 bf
       1.3121721148703855 -0.04021068871564029
000130 a0 43 83 ac 3f 0f cd 3f 58 1d 0f b0 0c 8d e2 3f
       0.22702785418962623 0.5797179640439181
000140 85 05 59 4c 69 9c d2 bf e0 ff db 09 7f b9 cc 3f
       -0.2907965894301799 0.22441089612402632
000150 b8 27 b4 40 d5 10 e3 3f 97 aa 5b 9c 0f 3b c4 bf
       0.5958048118347881 -0.15805239805861923
000160 9a f7 12 bf 70 90 d2 3f bd f3 6a de 96 63 e6 3f
       0.2900659433324734 0.6996569007966326
000170 c8 97 34 c7 52 ae b6 bf a9 5a 2f c1 3c e6 d1 3f
       -0.08859746325887763 0.27967757096977636
000180 ff b0 71 0f e1 2b f1 3f c9 2c 9d 3c 50 56 a9 bf
       1.0732126811299734 -0.049486644171872714
000190 a5 b7 2a 44 9e c5 cf 3f bf 1e b5 54 fd 18 e8 3f
       0.248218329701044 0.7530504850810401
0001a0 ee a1 6c 5a fa 03 b9 bf 44 e7 e3 77 c5 32 d1 3f
       -0.09771694858194 0.26872383792907706
0001b0 e2 af 66 4a 88 0f e7 3f c7 fb 0c 1f e2 17 bf bf
       0.7206460431239032 -0.12145818002771512
0001c0 97 67 87 8e fd 0c cd 3f e2 60 b5 d3 b7 0a e1 3f
       0.22695893725795876 0.5325583586627796
0001d0 5f a8 71 98 0a 75 c3 bf 67 9f cd d6 22 be d5 3f
       -0.15200931972077833 0.3397299859702713
0001e0 b0 13 57 ec 4c 6f ef 3f df c7 79 d5 79 9e a9 bf
       0.9823364845293465 -0.05003720026878943
0001f0 69 e8 e4 56 78 13 d1 3f 8e ac f6 a6 22 0f e3 3f
       0.2668133591247455 0.5955975781447636
000200 92 d0 25 61 dc c3 ba bf 80 55 38 55 c9 c5 d6 3f
       -0.10455109950800281 0.3558219272830101
000210 73 94 a4 64 ce 6f df 3f 9f 06 4a 84 14 e9 d8 bf
       0.4911991103020405 -0.3892260829817164
000220 2e 9e 88 fc 67 55 d2 3f 51 a8 f4 99 ca de f1 3f
       0.28646278058519925 1.1168924344915647
000230 c5 a4 2f 89 14 1b ab bf 98 74 1a 2d 11 31 ca 3f
       -0.05294098066935641 0.20462240888892747
000240 99 f7 05 e1 d7 ed e5 3f ac 99 26 45 c5 80 c1 bf
       0.6852836031900892 -0.13674226643088383
000250 a2 26 35 47 45 fa cc 3f 16 a4 d4 73 dd ab e7 3f
       0.22638765313086134 0.7397296202008217
000260 ba d6 23 4f 59 9f c0 bf a4 8a 04 10 69 fb c9 3f
       -0.12986294140107707 0.2029849365436195
000270 0a c2 5b 27 ed 56 e6 3f 9e 03 fb 70 2b 54 bf bf
       0.698111130592282 -0.12237807758630345
000280 ea 63 a8 65 32 4a cf 3f de c2 d2 94 a8 8d e6 3f
       0.2444518085838177 0.7047922999100498
000290 97 7a e9 35 66 07 c1 bf b7 c6 5b fc 7c d3 cc 3f
       -0.133038307499153 0.2252041084498637
0002a0 ae 05 95 8c e4 98 e2 3f 7a 7b c6 01 08 82 bb bf
       0.5811636682266703 -0.10745286982863247
0002b0 35 2a e4 ef c7 da d3 3f 88 b2 96 0b 6a 2e ea 3f
       0.3102283327758955 0.818165800699334
0002c0 e9 c6 55 24 2d 16 b9 bf ea a6 bc c4 5e d1 c7 3f
       -0.09799463402830678 0.1860769711141111
0002d0 ff e5 68 3c 59 ba e3 3f 66 95 a8 fb 8c 5c f7 bf
       0.6164976291540255 -1.4600953894053759
0002e0 a4 71 fe 9a 25 69 b2 3f 6c b8 d2 6d 48 fb e8 3f
       0.0719169143107537 0.7806741852744046
0002f0 d8 3c 38 61 c0 13 bd bf f2 08 6e 2b d7 55 cc 3f
       -0.11358263371970467 0.22136964436146617
000300 38 6e fd 95 5d 0b e8 3f d8 30 b4 af 33 49 c0 bf
       0.75138739867129 -0.12723394469538252
000310 9a c6 6b 08 18 ed c7 3f 0f 40 48 3e 3b a1 e5 3f
       0.18692303095990753 0.6759315697145228
000320 3d 22 e7 6a 07 5e fb bf 20 25 31 d7 27 dc 80 3f
       -1.7104562927144251 0.00823241353477272
000330 17 06 90 43 75 44 e6 3f 9a 3c 0b 01 71 ad c0 bf
       0.6958566970426457 -0.130293012151445
000340 80 45 01 08 4e d7 cc 3f 19 79 08 01 92 2e eb 3f
       0.22532058134906308 0.8494348545243923
000350 10 aa 87 7b 7f ab c2 bf 24 30 b9 e2 bb 72 b8 3f
       -0.14585870296225822 0.09550070080985101
000360 d2 52 35 d9 41 45 ee 3f 10 17 61 16 a9 ae b4 bf
       0.9459542505597602 -0.08079010769241912
000370 52 e3 50 f5 73 b7 c5 3f bf 82 bc 05 47 41 e4 3f
       0.1696610400993231 0.6329684364355542
000380 94 82 91 ed ae c4 d8 bf 03 c9 36 d4 69 41 c2 3f
       -0.3870045967105764 0.14262125837337444
000390 0a e6 0d 78 14 37 ef 3f 0b 96 c2 f0 79 05 9b bf
       0.9754736275492075 -0.026388078040914958
0003a0 76 ca ff b2 b4 d8 df 3f b0 58 f8 43 fa 59 f2 3f
       0.4976016758002183 1.1469671874124678
0003b0 b3 da 86 93 6a b9 af bf 28 37 3b bb 12 dd c1 3f
       -0.06196148920883129 0.13955911771920992
0003c0 ca 8d 98 22 ff b3 e6 3f dc 48 62 74 c7 27 c0 bf
       0.7094722438527523 -0.1262139623909836
0003d0 5b 6b 29 b3 9c 78 ce 3f 32 75 48 50 02 39 e5 3f
       0.23805578945288172 0.6632091110256282
0003e0 c8 67 9c e8 cc 84 c0 bf e2 63 ef be ef 1e d0 3f
       -0.12905274732548677 0.2518882145500908
0003f0 1c dc 4c 31 e4 33 eb 3f 85 c3 2c 96 ff 8e c2 bf
       0.8500843966384113 -0.14498896439320333
000400 e4 45 96 a9 ca a1 b8 3f a6 df 6e 9d 6f 78 eb 3f
       0.09621874466235841 0.8584516596665608
000410 49 e2 59 6a 46 f1 c1 bf 31 40 38 07 2a 5b bc 3f
       -0.14017563050198792 0.11076605488074233
000420 3a 22 1e ee 0c 5d eb 3f 82 be 9c 2d 2c 2a c3 bf
       0.8551087046371955 -0.14972450472986415
000430 fc 98 29 f2 3c bc b8 3f 53 ec c8 33 3c 6c e5 3f
       0.09662228500528508 0.6694623004363031
000440 0c 7f f8 fa c3 ab b8 bf 9b 8d ae 8f cd d0 d1 3f
       -0.09637093426908566 0.27836932212286464
000450 4c bd 03 ea eb 46 e5 3f b6 88 6e fe 22 78 bf bf
       0.6649074144933507 -0.12292689048493596
000460 20 b4 79 ac 69 b6 d1 3f d2 c9 80 52 6a 09 e6 3f
       0.27675859301854366 0.6886493312252304
000470 bc a7 f2 82 34 cf d3 bf 6e 0f a1 47 d1 00 c3 3f
       -0.3095217970645725 0.14846244809643444
000480 08 04 cc 58 c9 33 eb 3f 61 26 8f c5 ac 8e c2 bf
       0.8500715956034819 -0.14497909208721452
000490 54 81 f3 a9 80 a3 b8 3f 15 1a c3 2f ed 1b ea 3f
       0.0962448515815642 0.8159089978078692
0004a0 77 97 39 81 1e d0 c1 bf 17 66 f4 ed 9a 39 c0 3f
       -0.1391637927037512 0.12675797098999972
