O1_Steady_State_Response/A1_PSO/result/param_history.npy (npy, 1328 bytes, 1 tensors)

array f8 [50, 3]
0	0x3feb33fb8a1cfe87	0.8500955293202005
1	0xbfc28e74da895331	-0.14497242613529118
2	0x3fb8a2d58d16a964	0.0962346524671936
3	0x3feb33fb89fc9445	0.8500955290843498
4	0xbfc28e74d9ffa612	-0.14497242588485953
5	0x3fb8a2d5901e8bbc	0.09623465317285612
6	0x3feb33fb8a1a9cee	0.8500955293028747
7	0xbfc28e74da5ea2cd	-0.1449724260576403
8	0x3fb8a2d58db9c58c	0.09623465261554126
9	0x3feb33fb8a2e1c76	0.8500955294447425
10	0xbfc28e74da37f87a	-0.14497242598730847
11	0x3fb8a2d58e6b5374	0.09623465277702598
12	0x3feb33fb898c367d	0.8500955282667771
13	0xbfc28e74db808850	-0.144972426584959
14	0x3fb8a2d58cc1655c	0.09623465238964485
15	0x3feb33fb89c80f3b	0.8500955287022188
16	0xbfc28e74dbb929f6	-0.144972426687971
17	0x3fb8a2d58b7c648c	0.09623465209405618
18	0x3feb33fb8a19b105	0.8500955292961697
19	0xbfc28e74dab5ce03	-0.1449724262161994
20	0x3fb8a2d58d063c8c	0.09623465245225499
21	0x3feb33fb8a13b80f	0.850095529252714
22	0xbfc28e74d9f69d06	-0.14497242586842435
23	0x3fb8a2d58f81e014	0.0962346530303651
24	0x3feb33fb8a257eb3	0.850095529382051
25	0xbfc28e74da05f6a0	-0.14497242589634585
26	0x3fb8a2d58f11a72c	0.09623465292829952
27	0x3feb33fb8a72da36	0.8500955299449007
28	0xbfc28e74da18737e	-0.1449724259299749
29	0x3fb8a2d58d0818f4	0.09623465245394752
30	0x3feb33fb8a81ef88	0.850095530054646
31	0xbfc28e74da301049	-0.14497242597292573
32	0x3fb8a2d58ca32984	0.0962346523621474
33	0x3feb33fb8a4e3056	0.8500955296781381
34	0xbfc28e74dab1fd4d	-0.14497242620925946
35	0x3fb8a2d58bd33d74	0.09623465217304333
36	0x3feb33fb8a7a6c6b	0.8500955299999878
37	0xbfc28e74da15b0f4	-0.14497242592495463
38	0x3fb8a2d58d36cdd4	0.09623465249642688
39	0x3feb33fb8ad3a6e2	0.8500955306492097
40	0xbfc28e74d9cf6971	-0.14497242579711725
41	0x3fb8a2d58b6993cc	0.09623465207694365
42	0x3feb33fb8a7a0e48	0.8500955299973123
43	0xbfc28e74d9e46ff3	-0.14497242583536227
44	0x3fb8a2d58d779c14	0.09623465255536728
45	0x3feb33fb8a2b9136	0.8500955294262329
46	0xbfc28e74dada3cfc	-0.14497242628247153
47	0x3fb8a2d58c221dc4	0.09623465224478084
48	0x3feb33fb89fdcd24	0.8500955290932422
49	0xbfc28e74da5b3e24	-0.1449724260514681
50	0x3fb8a2d58ea554b4	0.09623465282978111
51	0x3feb33fb8a5665bc	0.8500955297378634
52	0xbfc28e74da882530	-0.14497242613314532
53	0x3fb8a2d58c1ffa24	0.09623465224283528
54	0x3feb33fb8a316499	0.8500955294686207
55	0xbfc28e74da8c4956	-0.14497242614067812
56	0x3fb8a2d58ce8cdfc	0.09623465242548684
57	0x3feb33fb8a196714	0.8500955292940682
58	0xbfc28e74dae03e0c	-0.14497242629339302
59	0x3fb8a2d58c54a72c	0.09623465229074374
60	0x3feb33fb8a1d88b4	0.8500955293241277
61	0xbfc28e74da9788c4	-0.1449724261611377
62	0x3fb8a2d58d5fd3ec	0.09623465253373781
63	0x3feb33fb8a419e32	0.850095529586673
64	0xbfc28e74da5ace6f	-0.14497242605067437
65	0x3fb8a2d58d3b16c4	0.09623465250032398
66	0x3feb33fb8a0ac9e6	0.8500955291877375
67	0xbfc28e74daf938b2	-0.14497242633882973
68	0x3fb8a2d58c376c1c	0.09623465226415856
69	0x3feb33fb8a35a585	0.8500955294995697
70	0xbfc28e74da65d8ba	-0.1449724260707564
71	0x3fb8a2d58d404434	0.09623465250503288
72	0x3feb33fb8a136657	0.8500955292503914
73	0xbfc28e74da65fb12	-0.14497242607100042
74	0x3fb8a2d58e1fdb84	0.09623465270838777
75	0x3feb33fb8a9a317f	0.8500955302311438
76	0xbfc28e74da381578	-0.14497242598751447
77	0x3fb8a2d58cb815a4	0.09623465238117618
78	0x3feb33fb8a6cac63	0.8500955298999425
79	0xbfc28e74dafa86ed	-0.14497242634120458
80	0x3fb8a2d58ac356fc	0.09623465192575148
81	0x3feb33fb8a0f7b51	0.8500955292218838
82	0xbfc28e74da304af7	-0.14497242597334267
83	0x3fb8a2d58edc8b9c	0.09623465287999838
84	0x3feb33fb8a346cdf	0.8500955294906837
85	0xbfc28e74dad30c57	-0.14497242626939297
86	0x3fb8a2d58c076584	0.09623465222047939
87	0x3feb33fb8a572fa7	0.8500955297436023
88	0xbfc28e74da5a3564	-0.14497242604958693
89	0x3fb8a2d58ca7eee4	0.0962346523664866
90	0x3feb33fb8a6fc424	0.8500955299224455
91	0xbfc28e74da5b2eb3	-0.14497242605135838
92	0x3fb8a2d58c18f1b4	0.09623465223643884
93	0x3feb33fb8a23edcc	0.8500955293706567
94	0xbfc28e74da36f895	-0.14497242598549023
95	0x3fb8a2d58e07e69c	0.09623465268659931
96	0x3feb33fb8a2f23db	0.8500955294522287
97	0xbfc28e74da6f4c99	-0.1449724260879506
98	0x3fb8a2d58d9eeddc	0.09623465259112812
99	0x3feb33fb8a4a7693	0.8500955296510305
100	0xbfc28e74da91a053	-0.14497242615039116
101	0x3fb8a2d58be3fd5c	0.09623465218827704
102	0x3feb33fb8a44de74	0.8500955296103272
103	0xbfc28e74da642560	-0.14497242606766303
104	0x3fb8a2d58cf7a8bc	0.09623465243899693
105	0x3feb33fb8a21e35f	0.8500955293558085
106	0xbfc28e74db12dbe0	-0.14497242638546393
107	0x3fb8a2d58c4a9304	0.09623465228157718
108	0x3feb33fb8aad4045	0.8500955303698069
109	0xbfc28e74da7524af	-0.14497242609858094
110	0x3fb8a2d58acb940c	0.09623465193324438
111	0x3feb33fb8a184810	0.8500955292859107
112	0xbfc28e74dab45f75	-0.14497242621359488
113	0x3fb8a2d58ccd154c	0.09623465240027435
114	0x3feb33fb8a052685	0.8500955291467142
115	0xbfc28e74da47e4b2	-0.14497242601627175
116	0x3fb8a2d58ee286ec	0.0962346528854387
117	0x3feb33fb8a29e577	0.8500955294140756
118	0xbfc28e74db391284	-0.14497242645497377
119	0x3fb8a2d58aec39dc	0.09623465196293729
120	0x3feb33fb8a399844	0.8500955295282968
121	0xbfc28e74da68b8e1	-0.14497242607598707
122	0x3fb8a2d58d7a34dc	0.09623465255772906
123	0x3feb33fb8a8082f1	0.8500955300442837
124	0xbfc28e74da9ae865	-0.14497242616727415
125	0x3fb8a2d58aeda44c	0.09623465196422493
126	0x3feb33fb8a49a3d5	0.8500955296450409
127	0xbfc28e74da0257c0	-0.14497242588976
128	0x3fb8a2d58e0b655c	0.0962346526897781
129	0x3feb33fb8a3f6219	0.850095529570413
130	0xbfc28e74da7af4b5	-0.14497242610915398
131	0x3fb8a2d58c99ba6c	0.09623465235356726
132	0x3feb33fb8a43de8f	0.8500955296030542
133	0xbfc28e74da40084e	-0.14497242600197285
134	0x3fb8a2d58da5feb4	0.09623465259755443
135	0x3feb33fb8a74c15e	0.8500955299587465
136	0xbfc28e74da97c81b	-0.14497242616158776
137	0x3fb8a2d58bbccbe4	0.096234652152631
138	0x3feb33fb89f0e6b4	0.8500955289993812
139	0xbfc28e74da94e9fd	-0.14497242615637154
140	0x3fb8a2d58e40ff2c	0.09623465273852777
141	0x3feb33fb8a551b65	0.8500955297284746
142	0xbfc28e74da70fcd4	-0.1449724260910218
143	0x3fb8a2d58c2dd0ac	0.09623465225542088
144	0x3feb33fb8a46ee2e	0.8500955296253261
145	0xbfc28e74da8bba0c	-0.14497242613966
146	0x3fb8a2d58ca07934	0.09623465235970202
147	0x3feb33fb8a166dcc	0.8500955292724313
148	0xbfc28e74dab13ed8	-0.14497242620790618
149	0x3fb8a2d58db2ea2c	0.09623465260930492
