S2_System_Identification/A4_MFPA/result/param_history.npy (npy, 2848 bytes, 1 tensors)

array f8 [20, 17]
-0.05334047510851246 -0.5769338004706508 -9.850365840633145e-09 0.3084531916011467 2.516014019939741 0.03503555749281486 1.0058211633471117 -4.241772516191673
-45.00174216113115 -0.04825768449299359 -4.945016281703766 -0.3704140399641516 1.7872895150823562 11.19955631419634 21.89326829085609 1.110716265500654
0.7251668338816922 -12.24796550621014 -0.1351891912414068 -7.156572360148649e-09 16.717289296582983 32.42796939081152 -0.4329042816668831 1.4657344475113034
-520.9336567162729 -6.11780318323331e-10 -0.05393851563892882 59.96293344367494 19.197706954292123 159.50591901201648 42.66932290190371 487911.9631682782
0.5586599633223325 1.7110554996377965 -0.16381538546760926 -0.5297440346663692 -4.806925908718118e-07 1.8985693601187676 1.2810960065497192 0.038008582935680844
1.4405603807021683 -5.6302876278690706 -45.83597104474861 -0.04333921048693265 -5.60346424171771 -0.37342122133640343 17.316978012869846 3.7416882519202845
22.966928402041823 0.904757854463935 1.784675497317353 -0.05391689513180397 -0.5864786126499703 -1.4037005104111118e-16 1.2932295566506935e-13 2.813307142021646
0.034509589899381805 0.9387201804490662 -2.3418358858453896 -46.79993330658485 -0.06361846898984921 -4.277949135427017 7.358226920066726 17.431555254473604
2.9451917307336544 26.331738835266137 8.166700440162186 7.900337528856861 -0.04828679813797739 -0.5834487497199738 -1.3835461957529251e-07 4.388084872418005e-05
2.7867376523696765 0.03448409047766456 0.9436661920588443 -5.091533833505746 -46.04927466629033 -0.07113387729433614 -5.134561250573089 0.6651960739688959
16.420744870582794 3.030775662604005 24.34599091644355 2.6740513066287876 2.8704688404759846 -0.04438436735745823 -0.5816225686299408 -4.130527124739293e-06
0.11911178318925045 2.6677998351354306 0.03466871584640378 0.973943793683824 -6.4730972333139105 -43.26813239442721 -0.06122909569175719 -5.672626441363078
-0.38881967044855703 17.311168477298875 3.078884789992309 24.070750989619352 0.9902968378003155 1.3576317866559071 -0.04300052094847762 -0.5817267378023749
-1.1946039026107874e-08 0.0259167217019439 2.750511491662107 0.0345450633518314 0.950820646332958 -4.913609481990942 -44.3662777431538 -0.05056096651014556
-5.1569146784762685 -0.43565265609344994 1.7323951296414544 9.52615429013669 22.155536348456398 0.14315796309954243 0.248738671499814 -0.044886321064252395
-0.5818811064687383 -2.3083610733564493e-10 0.02736306025951742 2.7532733684667208 0.03455041213240603 0.9499325871484204 -3.8226166646744906 -45.31200724269613
-0.05059528356322118 -4.79889323684053 1.9520438229730113 1.785481648858396 9.516331512960823 21.577765130362575 2.2896802991267142 2.478869289445181
-0.09972262518049646 -0.5557318744301272 -2.5735589179623935e-06 1.0459705253225002 1.9083270399173844 0.03629896684120288 1.1774068312000427 -4.00908192972296
-44.34479757809345 -0.04539529042726422 -4.8694134473244075 0.039442735020752816 17.402197716777234 2.68962690348298 22.02862444741796 5.81852204249998
6.112786757341017 -0.053027571980133484 -0.5862698587612335 -2.760216216720809e-10 2.6929599956954074e-06 2.8110221387139775 0.034507469308184616 0.9392023011250801
-4.1367989381697186 -45.50403651132297 -0.06643953194010853 -4.789074386657732 3.5629460474677512 16.510776672622768 3.462704072115349 24.576940244043833
4.551137010862788 5.495362218682305 -0.28117858008309676 -0.4977866821655933 -4.320278615128957e-06 2.8659106636664475 0.7025785206647327 0.04001895529900378
1.876606586434883 -6.203556677202503 -43.129014792583654 -0.02906935402632491 -5.755575728622113 0.12296321946119773 -0.2850449447591886 15.740647469617276
21.299590148811806 2.077549985564259 3.810642961245597 -0.05719094465661907 -0.5864663418513015 -4.31619762910673e-07 0.00037515278524583994 2.8218011474672045
0.03452402039724906 0.9352965617250633 -1.8459118932678504 -46.94195233031976 -0.06212259079870581 -4.1743901826006615 0.6113893996795084 17.101501075320854
2.6033625910359737 26.217022141916956 8.48199918570441 8.46064546244329 -0.05117790637978468 -0.5860645616863407 -1.0952235132519829e-16 1.157958279761339e-13
2.8071593771644663 0.034505338610120666 0.9402222485702112 -5.766629702047448 -44.42313828063774 -0.0717272990359651 -5.344953868363413 18.947770929758928
16.568607071739077 3.1111590191467244 24.319313063309174 1.3317451604933273 0.5625337033665706 -0.0466506228071249 -0.5833390048562178 -4.041507862073179e-11
5.968210704171896e-10 2.7830659387655596 0.034479613654765255 0.9448655032040117 -5.507060164510192 -44.725171651651635 -0.06889874534086579 -5.255745932517505
5.089510567923641 15.643978552245706 3.451202697526044 23.868566326775934 1.8452956021200335 2.027479640795208 -0.12791047252239693 -0.5855949938397514
-1.3919382608824302e-05 0.3109585235864879 2.6962351579319086 0.035189863155528314 0.9497702252039121 -17.681262923104935 -0.4313450136817381 1.3884819536441673
-21.03495560141139 -0.05366946943368492 20.44760539760722 0.06538564051600991 25.39061074237242 3.037111796031816 50.679679595126935 -0.23420287448798616
00000000: becf 4958 714f abbf 564f 9fdf 3d76 e2bf
00000010: 0549 6fbf 4b27 45be 1285 9174 b2bd d33f
00000020: 7559 5ff5 cb20 0440 d3ed 413b 2ef0 a13f
00000030: 5335 a3ee d717 f03f 9f75 e836 93f7 10c0
00000040: 948a 4e16 3980 46c0 1d2f 5b31 3bb5 a8bf
00000050: b96b 2059 b2c7 13c0 6504 e816 ddb4 d7bf
00000060: de32 fce3 bc98 fc3f fe5d c63e 2c66 2640
00000070: ddc7 0f3b ade4 3540 765e 376b 7ec5 f13f
00000080: af4d 7513 9134 e73f d26a b755 f57e 28c0
00000090: b3c7 9321 e14d c1bf 4ba5 d409 bcbc 3ebe
000000a0: 4298 7645 a0b7 3040 bd9c 74b3 c736 4040
000000b0: 4cb0 0329 b4b4 dbbf 26e8 caf6 a573 f73f
000000c0: aa30 0321 7847 80c0 5d8b 8bce 4605 05be
000000d0: b0f5 5341 d49d abbf 7e67 3067 41fb 4d40
000000e0: 5ee0 46ec 9c32 3340 2261 117d 30f0 6340
000000f0: f411 735f ac55 4540 fec8 48da 9fc7 1d41
00000100: 2fba 01dc 8ae0 e13f 4a5d 49bb 7b60 fb3f
00000110: 3a1f 950d e7f7 c4bf a794 04c3 a9f3 e0bf
00000120: 5e29 a42f 1e21 a0be 335d ee43 8a60 fe3f
00000130: 0aad b286 5e7f f43f 9b23 5a69 dc75 a33f
00000140: 4977 b00a 890c f73f 9515 b31e 6a85 16c0
00000150: 93cc 6419 01eb 46c0 2c07 5a97 8e30 a6bf
00000160: 98ee b987 f269 16c0 386c 511f 22e6 d7bf
00000170: bad3 9678 2551 3140 aa99 0e40 faee 0d40
00000180: da57 a89e 88f7 3640 6618 77be c6f3 ec3f
00000190: 8635 efe4 078e fc3f cffe 95ca fe9a abbf
000001a0: 8752 a4cb 6ec4 e2bf 7929 02a6 bd3a a4bc
000001b0: ae30 a6bb 5933 423d 88b0 c42c a781 0640
000001c0: 914d 08b0 3dab a13f 77f7 63e7 fe09 ee3f
000001d0: ec70 f273 14bc 02c0 ac61 ef36 6466 47c0
000001e0: 66a5 bbcb 4c49 b0bf 2a71 bab2 9e1c 11c0
000001f0: ffee a809 d36e 1d40 8f61 b867 7a6e 3140
00000200: 009b 9fae c08f 0740 fc47 18d6 ec54 3a40
00000210: 6773 95c2 5955 2040 ea34 c714 f299 1f40
00000220: ab8e a915 0cb9 a8bf 600f 5eb6 9cab e2bf
00000230: ef06 951a d491 82be 8d75 457b 9601 073f
00000240: 37ad 3b1c 3d4b 0640 93f1 aa11 e6a7 a13f
00000250: 9479 2771 8332 ee3f ec89 950b bb5d 14c0
00000260: 801e dca1 4e06 47c0 ede9 9d6c d435 b2bf
00000270: c414 aa6c ca89 14c0 d9f7 e346 4949 e53f
00000280: e41c 93ef b56b 3040 eb2c 834f 073f 0840
00000290: 8fd6 56dc 9258 3840 aa5f ee02 7564 0540
000002a0: 4c40 105e b8f6 0640 8303 823c 8cb9 a6bf
000002b0: 1032 dcee a69c e2bf 4747 8fa6 1e53 d1be
000002c0: fab6 5d1d 1c7e be3f 6a72 a170 a757 0540
000002d0: b65d 8211 19c0 a13f 4a74 c02c 8c2a ef3f
000002e0: 33a5 e399 73e4 19c0 1288 8c29 52a2 45c0
000002f0: c497 1e87 6b59 afbf 2f51 60fc c4b0 16c0
00000300: 228e 27e6 6be2 d8bf 778b c1bc a84f 3140
00000310: b159 4959 8ea1 0840 2393 a2bc 1c12 3840
00000320: 03e8 75fe 82b0 ef3f 9c27 bb1b dcb8 f53f
00000330: a18d 5e0e 2a04 a6bf 2c3d 4264 819d e2bf
00000340: 4894 4087 67a7 49be d97c 84c0 e989 9a3f
00000350: faaf 3f2b 0c01 0640 c231 abfa e3af a13f
00000360: 8892 8b6b 1f6d ee3f ccdd 793e 89a7 13c0
00000370: 940c 6830 e22e 46c0 f5fe 3a83 20e3 a9bf
00000380: 8f45 d13d aea0 14c0 d08f 95ad bbe1 dbbf
00000390: a4f4 98f4 e3b7 fb3f 0993 5918 640d 2340
000003a0: a1f5 e93a d127 3640 5456 d608 0053 c23f
000003b0: d4cc ab35 abd6 cf3f f176 0402 57fb a6bf
000003c0: 5b31 4e20 c59e e2bf 62be 5fd0 d2b9 efbd
000003d0: c57f bbe3 0f05 9c3f 3d19 1430 b406 0640
000003e0: 1c11 5874 97b0 a13f dba0 6606 d965 ee3f
000003f0: 4e5f bf0b b894 0ec0 5dbf 73da efa7 46c0
00000400: 70c5 7800 a0e7 a9bf 13e7 9411 1132 13c0
00000410: 4472 c04d 923b ff3f 8b47 9734 5591 fc3f
00000420: 331f a49a 5c08 2340 2bad 636a e893 3540
00000430: 9e5b 98e7 4351 0240 76ce 096c b9d4 0340
00000440: b84d d205 6c87 b9bf a8b5 4036 8ec8 e1bf
00000450: 939c 3ffa ac96 c5be f670 ed96 4bbc f03f
00000460: 4e48 28ef 8188 fe3f e950 ec36 c795 a23f
00000470: 7575 a18b a8d6 f23f 2894 fcc5 4c09 10c0
00000480: 60d3 b853 222c 46c0 5317 8e2f 0d3e a7bf
00000490: 03d8 cb84 477a 13c0 f335 f591 d631 a43f
000004a0: 8715 f86d f666 3140 8d35 271c 5b84 0540
000004b0: b686 89ee 5307 3640 c25e 6ea4 2a46 1740
000004c0: 65ce 285f 7e73 1840 6ac5 e10e 6e26 abbf
000004d0: 3952 c001 b9c2 e2bf f8b8 5cdf d2f7 f2bd
000004e0: 9419 096a 1697 c63e 3ade d02c f97c 0640
000004f0: e2f1 4a88 f6aa a13f 0e20 f5fb f10d ee3f
00000500: 1044 5605 158c 10c0 a10f b644 84c0 46c0
00000510: ef24 d860 2e02 b1bf 9139 b31d 0328 13c0
00000520: a94a 7adb e980 0c40 7879 9042 c282 3040
00000530: 0cb1 4b31 9eb3 0b40 1eea 175b b293 3840
00000540: 5f15 b542 5d34 1240 73a8 c33b 40fb 1540
00000550: 3fba 7271 d4fe d1bf c646 12ac bcdb dfbf
00000560: 0ded a424 dd1e d2be f0a3 ed91 62ed 0640
00000570: 1911 24f3 857b e63f bf67 7550 5d7d a43f
00000580: e622 c3a0 9406 fe3f 64de 5d29 71d0 18c0
00000590: 6b6c 858e 8390 45c0 7986 6f53 5bc4 9dbf
000005a0: 5955 d0a4 b505 17c0 ea5b 327e 847a bf3f
000005b0: b65f e826 2d3e d2bf 22be 2725 367b 2f40
000005c0: b959 a3f0 b14c 3540 1c6e de86 d29e 0040
000005d0: 6d42 7a60 327c 0e40 8ae4 daa9 2148 adbf
000005e0: 5798 ce0f 55c4 e2bf 8441 daca 2bf7 9cbe
000005f0: b202 92f1 0496 383f ce7e e17a 0c93 0640
00000600: c9b3 10e5 21ad a13f da73 150e f3ed ed3f
00000610: 3220 cee8 da88 fdbf a38e dae4 9178 47c0
00000620: a97e a53f 88ce afbf a10d 0c57 93b2 10c0
00000630: 73d3 9780 8090 e33f 0c03 77f9 fb19 3140
00000640: de08 21c4 afd3 0440 8c0a 5ac3 8e37 3a40
00000650: 2099 e698 c8f6 2040 4d7d d8b8 d9eb 2040
00000660: 0d9c 5b94 fd33 aabf 7232 b977 0ac1 e2bf
00000670: a824 5eb9 5291 9fbc 4b00 7200 fc4b 403d
00000680: 1ea6 bcf9 0f75 0640 075a bc09 afaa a13f
00000690: 9a94 12f8 4c16 ee3f 7abe 6960 0711 17c0
000006a0: 2b83 2a65 2936 46c0 8902 9763 b85c b2bf
000006b0: 89ff 3c96 3b61 15c0 036a 9b1d a1f2 3240
000006c0: c764 a93b 9091 3040 fd1f ff56 a7e3 0840
000006d0: 3619 3c80 be51 3840 42cd 6e03 d44e f53f
000006e0: 116e 5bae 4600 e23f 28da 9626 97e2 a7bf
000006f0: 25d6 8a8f b6aa e2bf ee8a 04aa ea37 c6bd
00000700: 2a44 3e93 b181 043e 7fe0 2c13 b843 0640
00000710: ef46 0dda 4fa7 a13f 6f27 6c94 563c ee3f
00000720: dfb3 9ec7 3a07 16c0 40ea b76c d25c 46c0
00000730: 9e75 f921 59a3 b1bf a7fd 0043 e205 15c0
00000740: 8283 87a8 a85b 1440 0471 8a8e b749 2f40
00000750: 43ee ed28 109c 0b40 d4e8 df5c 5ade 3740
00000760: 46ee 68ae 5486 fd3f 832b f43e 4738 0040
00000770: 5759 26d0 5e5f c0bf 19c7 67b6 31bd e2bf
00000780: 30a8 f460 e930 edbe aad9 4d94 bee6 d33f
00000790: bf24 0dbd e391 0540 02b3 cede 6704 a23f
000007a0: 35e4 fe86 8464 ee3f 8bb6 363f 67ae 31c0
000007b0: 3591 c31d 289b dbbf 62ce 5fda 3837 f63f
000007c0: badf acd9 f208 35c0 74cf 0590 907a abbf
000007d0: 703c 7044 9672 3440 37ef a403 1dbd b03f
000007e0: b1f4 cb10 ff63 3940 1005 f244 014c 0840
000007f0: 136a b0bd ff56 4940 4c0d 471b 5cfa cdbf
