S2_System_Identification/A2_APSO/result/param_history.npy (npy, 2848 bytes, 1 tensors)

array f8 [20, 17]
0	0xbfe33c64c5624014	-0.6011222701217798
1	0xbfe0080b35993b8b	-0.500981907543847
2	0xbfa76c5fa524250f	-0.045748700054966666
3	0x3fef2038dfa9e19d	0.9726833694867768
4	0x3ffa5cbe61714926	1.6476424986218006
5	0x3fafcfe0c01cfbd2	0.06213285775310563
6	0x3ffdb86e562161ab	1.8575271000355353
7	0xbfe3330bdc0c3239	-0.599981241016912
8	0xbfe416f4b129cbf7	-0.6278022251339043
9	0x3fea0f5f2a712b00	0.8143764332720309
10	0x3ff4e2aa834ad3c6	1.3053383949856978
11	0x4022cc660aaab2e5	9.399216016137368
12	0x4021fa99f55721e2	8.989455859075807
13	0x402694691a02e8ea	11.289864361624911
14	0x400cc876b9b61dfa	3.5978827007963874
15	0x4015495bde7410f5	5.321639514764901
16	0x40040334a442ed36	2.5015652497219447
17	0xbfcd24a1c654aa75	-0.22768041786305884
18	0xbfdb8e9e9f0d7d03	-0.43057981045235766
19	0xbfa8ca567724ee3b	-0.048418714565255226
20	0x3ffd6687e0a29df6	1.837531926614131
21	0x4000c25299fe6627	2.0948841124307083
22	0x3fb39b79e190d7f4	0.0765911269853346
23	0x3ff3243c8cb98ad6	1.1963468071996224
24	0xbfe88b1f1319dca8	-0.7669825909678325
25	0xbfdd265b674e7d0b	-0.45546612823996274
26	0x3ff70482a156fb63	1.4386011411986253
27	0x3ff6d79b440338ec	1.4276383072606746
28	0x4024b7fbc296a84c	10.359342652216718
29	0x4026a237b153b73e	11.316831151456082
30	0x4025e0d09c9e1b59	10.93909158163085
31	0x4013dabcf55ad107	4.963611444156647
32	0x4013fa9d1b49ff12	4.994739939109211
33	0x4016c79105231d98	5.694889145153319
34	0xbfb26704dc44a725	-0.07188444497719766
35	0xbfe635768f80f70f	-0.6940262606437687
36	0xbf652e3834af0c53	-0.002585515763230664
37	0x3ffa3461344d37c4	1.6377880137474543
38	0x3ffb78d6e566d232	1.7170018158914329
39	0x3fa1b1f129f503d5	0.03456071507617479
40	0x3ffa1e146cc93e74	1.6323436974961654
41	0xbfbec8a4798ab654	-0.12024906127290907
42	0xbfe1bc4e10fc4a88	-0.5542364436863219
43	0x3fd3090e76f9020d	0.2974277650683071
44	0x3fef916593413570	0.9864986301487715
45	0x4030de7fe4c801f3	16.869139002637848
46	0x4025796d38f95109	10.737161426958226
47	0x4026d45a3deb7c88	11.414750990863709
48	0x4006597486d12d56	2.793679288157061
49	0x400da527051f2a8a	3.7056408310066375
50	0x4012b93bb3f2eb32	4.680891811086257
51	0xbfd4dcd7ff21042a	-0.32597923197687584
52	0xbfd31de7932b6735	-0.2987002312853407
53	0xbfc6480f7e62cb17	-0.17407411261736946
54	0x3fff696cf8c631d6	1.963238689207278
55	0x4001181daf2e45fb	2.136775368308688
56	0x3fb48f2769fdb2e1	0.08030935609503899
57	0x4001b7186489e194	2.2144019941881172
58	0xbfe425a6f7c7beea	-0.6295962180574552
59	0xbfcd6a79c5e8cb04	-0.2298118797640073
60	0x3ffae81a6192ba25	1.6816657840205462
61	0x4002145088f6ef0c	2.259919233356305
62	0x402dde6fa8342cff	14.934445625657188
63	0x402240269b4314cb	9.12529454416144
64	0x402a2599812d5533	13.073436772140303
65	0x40173e5feca0d7ff	5.810912797276614
66	0x4013aafc504daf2f	4.916978125325655
67	0x40118c544fc77872	4.387040373372757
68	0xbfdfd40a25fb6879	-0.4973168726843436
69	0xbfe9cbbd9436b31c	-0.8061206717298748
70	0xbfa49259e47149b0	-0.04017907060246573
71	0x400060dec7522887	2.0472999164531447
72	0x3ff9afef09140c5b	1.6054525713559744
73	0x3facea176d6e190c	0.0564734765130642
74	0x4000d9806764cd7d	2.106201942218546
75	0xbfd173518c9eb0e2	-0.272663485836132
76	0xbfe11859c57e914a	-0.5342224938690745
77	0x3ff1d945157e7fe6	1.1155443992247398
78	0x4002716d792f7215	2.3053845851520784
79	0x402f6e326a95ffa0	15.715228396234863
80	0x402985ef3527fe8b	12.761590634472006
81	0x402b0721f421ed74	13.51393092073588
82	0x4010a527b80a246e	4.161284328097379
83	0x4011b5b11d6876df	4.427433452130315
84	0x400ffba77663efce	3.997878003048732
85	0xbfe305675e2fb5ea	-0.5944096412255793
86	0xbfe3749e0f82d02c	-0.6079855254124644
87	0xbfce3d7a2fbe7f3a	-0.23625113803154268
88	0x4001d5524a1270a6	2.2291608607175304
89	0x4003454307e95d28	2.4088192575542458
90	0x3fb25b0bf7fb73e8	0.07170176319364396
91	0x400555f67dcd9c54	2.666974051320304
92	0xbfc766c890cc8f61	-0.18282420225397814
93	0xbfc2187ddeba9f0e	-0.1413724267524618
94	0x3feded87b07e799e	0.9352453658246309
95	0x400d2d167f48742a	3.64701556625234
96	0x40341eb290829e0f	20.11991217793371
97	0x40309024141e3478	16.563050515531785
98	0x403105c2ed444f69	17.022505597283644
99	0x40187bfeacd9d0b8	6.121088696283714
100	0x401480b0725897cb	5.125673090607914
101	0x4018c3471e44ed8c	6.190700982052828
102	0xbfdabe7b6ab7eadc	-0.4178761045620101
103	0xbfcce6b1f2ab93e4	-0.22579025601513003
104	0xbfb0add837313a27	-0.06515265796154122
105	0x3fff223555be8a9d	1.945851645411188
106	0x3ff9751b06a395a2	1.5910902270637526
107	0x3fb4d7f0771a7a75	0.0814199724941121
108	0x3ff7ff1aac8bcab4	1.4997812976913965
109	0xbfd31c1cf33b1e02	-0.29859088662166766
110	0xbfe57c5d081b9b93	-0.6714310797077466
111	0x3ffc2a7fe6e70aab	1.760375883067051
112	0x3fcc72131fde8b98	0.2222312837230589
113	0x402a2fcbe9cbbfaf	13.093352609750438
114	0x403094fce4d96812	16.58198385532166
115	0x4021140819241ae4	8.53912428441749
116	0x40156872f49261e1	5.352001019892186
117	0x401b003eec4040a7	6.750240031644501
118	0x401045c3573d52fc	4.0681279784373565
119	0xbfd3eb451b753198	-0.3112347381727658
120	0xbfd3c5f6ea31b73a	-0.3089577948620562
121	0xbfaeb42480c3b76c	-0.05996812888939371
122	0x3ff47006c67b901f	1.2773502114514554
123	0x3ffae6864780ccab	1.6812804024782888
124	0x3fb3b70d1001e020	0.07701188698581563
125	0x3ff8aa9517e221fb	1.5416460926954858
126	0xbfe25e28a42fd769	-0.5739939886832249
127	0xbfcb2133db1be26e	-0.2119507617824356
128	0x3fe75cb28a23dce8	0.7300656030701278
129	0x3fd653fda3b754d6	0.34887639034179807
130	0x402d3f6bfdf28cd9	14.623870788438966
131	0x402b50c48d9d67ad	13.657749581779933
132	0x4029659e7182872b	12.698474452193826
133	0x401137345301ed56	4.303910538666363
134	0x400c9d0f50ac6a82	3.5766893675439073
135	0x4014d64f81e39271	5.209287671580214
136	0xbf8537cc2c09a84c	-0.01036033162491292
137	0xbfdf8c1fbd7a8c2d	-0.4929274893167442
138	0xbfc70008b259fccd	-0.17968853672571186
139	0x3ff8a450ff70e895	1.5401163080373739
140	0x3ff83174035a16aa	1.5120735293325347
141	0x3fc161b7870f72f7	0.1357945832704883
142	0x3ff96c9c6fbbb21d	1.5890163769319152
143	0xbfd7b24673ba3ace	-0.3702560548926329
144	0xbfaf278ba1603993	-0.06084858269615547
145	0x3ff1b2214ba42f48	1.1059887842884155
146	0x3ffe4c657b77d412	1.8936514685603965
147	0x402e07813c26d718	15.01465785955547
148	0x402eae1300f6c80b	15.339988737225232
149	0x4026d9205f7faed6	11.424075111709879
150	0x4011fa196ff0b269	4.4942376604709375
151	0x4011d83f5b4d8bcd	4.46117918644718
152	0x4012e5fe61bf46a3	4.724603202151829
153	0xbfb940c062e636ef	-0.0986442796185789
154	0xbfc5ca95aca16152	-0.17024489335268328
155	0xbfaa638e9d66321d	-0.05154081031205158
156	0x4001f9d7404153d0	2.2469925899444902
157	0x3ffb8433b52383e0	1.719775874684494
158	0x3fb9c0be110c92de	0.10059726635206398
159	0x3fe5775eb4e5956e	0.6708215268269393
160	0xbfdbb499a9f65be1	-0.4328979644573661
161	0xbfd5c587f3bdae87	-0.3401813392908725
162	0x3ff50880bb0704c8	1.314575892043921
163	0x3ff7fa1135ec290a	1.4985515695903495
164	0x4028f932a528163d	12.486714516776482
165	0x402aeeaf3977dd1f	13.466180606729322
166	0x4031e2d434e5d47d	17.886050516234253
167	0x40132a33b0d4e4c4	4.791212809556956
168	0x40151a6de5b88b6c	5.275809850109777
169	0x4017196944091799	5.774815619521086
170	0xbf9f95b4d4d9a23b	-0.03084452199110131
171	0xbfdfe2a469af1bdf	-0.49820814438538535
172	0xbfd89b243f1a8192	-0.3844690910573486
173	0x3fff4611cb190c0c	1.9546068128117922
174	0x3ffc4a5f05519051	1.7681570251234187
175	0x3fc439c93498f810	0.15801348751296063
176	0x3ffd650833584c01	1.8371660237942253
177	0xbfc8717efc084183	-0.1909636240602702
178	0xbfda8b9fc1e97a07	-0.4147719758674672
179	0x3ffa55114af8ba3e	1.6457684448793226
180	0x3ff2c663aae1b21b	1.17343489409098
181	0x402bdb768ca09798	13.92863883457521
182	0x40287c67a40475d5	12.242978215736835
183	0x402a0689a703d050	13.012768954482596
184	0x40108877f83df257	4.1332701480683545
185	0x4017e5d35861913a	5.974439030604396
186	0x4017abe2c8d4cc52	5.917857301700751
187	0xbfd6f5024e903638	-0.35870416328620847
188	0xbfd613e99b77339b	-0.34496536428633257
189	0xbfb9ca87e09911bc	-0.10074662431094955
190	0x3fff9e181613cbbf	1.9760971891780483
191	0x3ffe40eea9035dc8	1.8908526041103517
192	0x3fb38996222461b3	0.0763181527476096
193	0x3ffe4043202b4fa6	1.8906890160187486
194	0xbfeb1dcdcf5958bc	-0.8473881768975597
195	0xbfd76a27289a7d44	-0.3658540627020168
196	0x3fd491e68a981b67	0.32140506300532085
197	0x3ffbf208be8b6503	1.746590370478146
198	0x402a551eb0e8d9c8	13.166249779152068
199	0x40285eda84fb7fa0	12.18526092119265
200	0x402945cdecda41c6	12.63633670963544
201	0x4017af118c7071d0	5.920965380061219
202	0x40170158a3baf07c	5.751314695629954
203	0x401394a079e02801	4.895143417650616
204	0xbfe41057ab1d52ac	-0.6269949285584366
205	0xbfe3aae8fd444042	-0.6146130510915173
206	0xbf87f6616601b968	-0.011700402188776507
207	0x3ffaddf3b3b1b482	1.6791874903967998
208	0x3ffe58682d3c83d2	1.8965837256475777
209	0x3fa853d8c1889141	0.04751469957799027
210	0x3ff6c9fe0050cf8b	1.4243145000773179
211	0xbfb6a92ad4dd2aa5	-0.08851878830788935
212	0xbfd7d9e707c28e40	-0.37267471082506987
213	0x3fedf6cabdac83f8	0.9363759712761057
214	0x3ff60dc0a3f83e6f	1.3783575444284926
215	0x4029ed5505c85986	12.963539295870543
216	0x40251cd51e77f2da	10.556313469068687
217	0x4029104c6b7b5d36	12.531833037194342
218	0x401675720ace1a5a	5.614692848996663
219	0x400ad2bdf0bf2f56	3.352901345095158
220	0x4009e5b14cfd69dd	3.2371545805774375
221	0xbfc2a869b1c667cb	-0.14576455288334808
222	0xbfcac2ed32c6d83d	-0.20907368640263427
223	0xbfb0e14fa2a9d1da	-0.06593797417901417
224	0x3ffb771bef440e84	1.7165793749162797
225	0x3ff8588d0413eac4	1.5216188582696057
226	0x3fb73e3fafb32e19	0.09079359092282181
227	0x3ff517bfb1bed4d6	1.3182980483227786
228	0xbfe6cc1f75263a64	-0.7124173439095327
229	0xbfe7eb20ba19cbb2	-0.7474521288662486
230	0x3fe745169863bb11	0.7271836258276797
231	0x3fee11ee8e0ec2cc	0.9396889471591634
232	0x40253e636ac104fc	10.62185224157519
233	0x402901f290028279	12.503803730303149
234	0x4027a0fe180c1420	11.81443858287281
235	0x400fa0fbabd0685e	3.95360502462158
236	0x4016402977074cbf	5.562658176250976
237	0x4014bdec6a744d3f	5.185472167347426
238	0xbfe187734655fc8e	-0.5477844594714882
239	0xbfd7b151f79b484a	-0.37019776516274716
240	0xbfa79ed7fa1b8aa2	-0.04613375595160575
241	0x3ff64369faa93c93	1.3914584914635142
242	0x400164a6ab874913	2.1741460228596536
243	0x3fb3e33792e8b0a4	0.07768580757755444
244	0x3ff10bdc9cbf70f7	1.065395939155733
245	0xbfe3b24f8b24703d	-0.6155164449332983
246	0xbfd6a264113a5460	-0.35366155321509574
247	0x4001b4890f28b957	2.213152044706628
248	0x40007c42f1c2bbb6	2.060674561267173
249	0x401cedb439f8d5e4	7.2321328218581336
250	0x4029ec504fbbf3b5	12.961550227826459
251	0x4023049392002073	9.508938372149919
252	0x400fd2940ff63291	3.9778214690216562
253	0x4019d2869890202c	6.455591567799313
254	0x401afa89f79ac945	6.744666928121949
255	0xbfd75f26cd556451	-0.36518259098153744
